CSC-IVF/Train_result/LISTA_Detail_Train.model (torch_old, 62620 bytes, 56 tensors)

convLayer0.conv.conv_decoder.de_conv0.conv2d.weight f4 [1, 64, 3, 3]
0.029932838 -0.0022238195 -0.009366721 0.027759511 0.038387965 -0.040861823 -0.010294557 0.031204518
0.009141829 -0.033338882 -0.019943163 0.019436881 0.020508487 0.034958933 0.0046926998 0.035431128
-0.0061114244 0.0010709129 -0.0043777265 -0.022530785 0.014698505 0.03391083 0.03979172 -0.007668469
-0.036168307 -0.040182292 0.03683016 -0.01442593 -0.018918604 0.0050025284 0.013552215 -0.0044188537
-0.030078134 -0.008060187 0.027564477 -0.015415996 -0.026063686 -0.012737429 -0.0049221553 0.02192114
0.0002985038 0.035989303 -0.027598005 0.00036981702 0.027704526 -0.030991143 0.01323786 0.002568867
0.011494461 -0.004772201 -0.015531819 0.01705582 0.036703985 0.018512215 -0.04125628 0.0021575503
-0.016675334 -0.02089965 -0.018582508 0.028359417 0.0031567253 -0.03861759 0.002794411 0.023059044
0.03575396 -0.04004459 0.037969317 0.03438339 -0.032176167 -0.03049032 0.014222685 -0.017742654
0.035921443 -0.0018861145 0.039580498 -0.02268606 0.0030457526 -0.022931576 -0.02558671 -0.014639761
-0.014986154 -0.0053363927 0.01842982 -0.036659516 -0.039756864 0.019433368 -0.017152071 0.030257817
-0.022360977 0.0069727115 -0.01907964 0.03211995 -0.015905645 0.0014891066 -0.010006476 -0.016841438
-0.027391648 -0.03610409 -0.02182304 -0.008014813 0.018601757 0.032110754 -0.015797963 -0.020637026
0.020593416 -0.040135495 0.02066752 0.03153977 0.04117814 0.035719957 0.015959393 -0.0047962964
-0.018103864 0.018864308 -0.03511238 0.03038812 0.032554094 0.019065782 0.019828852 -0.017440792
0.023659047 0.0005550422 -0.0057653077 -0.033978544 -0.0247485 -0.027086746 0.03132386 -0.033769365
0.020258758 0.032496613 0.015771385 -0.016051939 0.0014013946 0.0071631074 0.031446498 -0.033184364
-0.035331048 0.028068524 -0.036973312 0.03564256 0.0047386996 0.010673881 -0.010189861 -0.018571993
-0.011788499 -0.009064902 0.022204582 0.041528273 -0.015718892 -0.00811398 0.020830963 0.0194294
-0.031936582 0.027418379 0.026581887 -0.00472961 0.020950835 0.026806716 0.020277243 0.009058971
0.025193918 0.028584633 0.02014954 -0.018625658 -0.026557496 0.040626418 -0.023528209 0.041118186
-0.023188785 -0.01277576 0.00410695 0.041107316 -0.031402793 -0.03215092 0.02179068 0.014552504
0.03557008 0.010822739 -0.018608436 -0.031700417 0.0062649995 -0.035689212 -0.009690341 -0.013128772
-0.008579727 -0.0031274818 -0.021145489 -0.032382093 -0.03787539 0.03159121 -0.013571098 -0.024494797
0.035362724 0.010307848 0.017411549 -0.03885605 -0.006599527 -0.028808728 0.024809409 0.019919831
-0.018130198 0.033721734 0.03441752 -0.0017987639 0.018144742 -0.017075002 0.03928947 0.03475256
0.039941717 0.035752583 -0.032863572 -0.029919272 -0.015392255 -0.008787479 0.034950588 -0.028381705
-0.008292761 0.020193651 -0.017153487 0.028262224 -0.024114843 0.026791591 0.030940805 -0.024791982
-0.03497463 0.035300437 -0.034207832 -0.032080032 -0.029833168 0.03111225 -0.01586566 0.015599713
0.020686 0.034383494 0.032464314 -0.035294186 -0.013010841 -0.016261136 -0.025639623 -0.023162186
0.012612697 0.005064834 -0.018132245 0.028806213 -0.007332936 0.031231385 -0.02283543 -0.017262172
-0.0026479512 -0.02364115 -0.007574439 -0.02748036 -0.026134204 0.0279692 -0.039043806 -0.013793018
00000000: b635 f53c 80bd 11bb e076 19bc ea67 e33c
00000010: b33c 1d3d ba5e 27bd 80aa 28bc 9ea0 ff3c
00000020: 9cc7 153c 5a8e 08bd d85f a3bc 183a 9f3c
00000030: 6a01 a83c 1931 0f3d 38c5 993b 3b20 113d
00000040: 5842 c8bb e05d 8c3a 0873 8fbb 7b92 b8bc
00000050: 00d2 703c 15e6 0a3d a5fc 223d c847 fbbb
00000060: 3825 14bd 3096 24bd 39db 163d bc5a 6cbc
00000070: 30fb 9abc 40ec a33b 1c0a 5e3c 08cc 90bb
00000080: 6b66 f6bc e00e 04bc e6ce e13c 6093 7cbc
00000090: 8383 d5bc a6b0 50bc 084a a1bb f693 b33c
000000a0: 8080 9c39 8569 133d 3615 e2bc 00e4 c139
000000b0: 9af4 e23c 23e1 fdbc 9ce3 583c 705a 283b
000000c0: 4453 3c3c 2060 9cbb 2c79 7ebc a6b8 8b3c
000000d0: eb56 163d eea6 973c 58fc 28bd b065 0d3b
000000e0: b69a 88bc be35 abbc 583a 98bc 0252 e83c
000000f0: 10e1 4e3b 7a2d 1ebd 7022 373b 52e6 bc3c
00000100: bf72 123d cc05 24bd b785 1b3d 99d5 0c3d
00000110: 28cb 03bd d6c6 f9bc 4406 693c 0b59 91bc
00000120: 5d22 133d 8037 f7ba 291f 223d 1ed8 b9bc
00000130: 409b 473b 00db bbbc 389b d1bc 9cdb 6fbc
00000140: 7c88 75bc e8dc aebb 22fa 963c 4a28 16bd
00000150: 18d8 22bd ba32 9f3c 8082 8cbc 3edf f73c
00000160: 5e2e b7bc 587b e43b e84c 9cbc 3590 033d
00000170: 8e4c 82bc 202e c33a 34f2 23bc 0ef7 89bc
00000180: 7364 e0bc e2e1 13bd 3bc6 b2bc 9050 03bc
00000190: b662 983c 9186 033d bb6a 81bc fb0e a9bc
000001a0: 86b3 a83c 1e65 24bd ee4e a93c d92f 013d
000001b0: 69aa 283d 174f 123d 46bd 823c 402a 9dbb
000001c0: 8e4e 94bc 5289 9a3c 00d2 0fbd 82f0 f83c
000001d0: 7157 053d d82f 9c3c 1e70 a23c fedf 8ebc
000001e0: 9ed0 c13c 4080 113a e8ea bcbb 162d 0bbd
000001f0: 5ebd cabc 06e5 ddbc 734d 003d bf51 0abd
00000200: b2f5 a53c 2b1b 053d fe32 813c 5b7f 83bc
00000210: 00af b73a 80b8 ea3b 0bce 003d 54ec 07bd
00000220: 4ab7 10bd f6ef e53c 5471 17bd effd 113d
00000230: 1847 9b3b 80e1 2e3c 60f3 26bc 4b24 98bc
00000240: 8c24 41bc f484 14bc 62e6 b53c 8d19 2a3d
00000250: e8c4 80bc 80f0 04bc b2a5 aa3c 682a 9f3c
00000260: efcf 02bd 829c e03c 42c2 d93c d8fa 9abb
00000270: 16a1 ab3c c299 db3c 761c a63c 146c 143c
00000280: 7a63 ce3c 522a ea3c a610 a53c d694 98bc
00000290: 1b8f d9bc e367 263d 3bbe c0bc 8b6b 283d
000002a0: 68f6 bdbc 6c51 51bc 9893 863b 2560 283d
000002b0: 37a0 00bd afb0 03bd 5e82 b23c a06d 6e3c
000002c0: efb1 113d dc51 313c b870 98bc 4cd8 01bd
000002d0: a04a cd3b da2e 12bd 3cc4 1ebc 101a 57bc
000002e0: fc91 0cbc 70f6 4cbb 4e39 adbc 16a3 04bd
000002f0: 3a23 1bbd c965 013d 5059 5ebc 50a9 c8bc
00000300: 81d8 103d 40e2 283c aaa2 8e3c 8627 1fbd
00000310: d840 d8bb 4800 ecbc 1a3d cb3c ea2e a33c
00000320: c885 94bc cd1f 0a3d 63f9 0c3d 80c4 ebba
00000330: 48a4 943c e0e0 8bbc ffed 203d b358 0e3d
00000340: ed99 233d 4d71 123d f49b 06bd 4319 f5bc
00000350: cc2f 7cbc 5cf9 0fbc 5928 0f3d c080 e8bc
00000360: 5cde 07bc 286d a53c 7885 8cbc 2e86 e73c
00000370: 7e8c c5bc 0a7a db3c 9277 fd3c 8e18 cbbc
00000380: 8f41 0fbd 3197 103d 831d 0cbd 5a66 03bd
00000390: b064 f4bc 1edf fe3c b3f8 81bc f095 7f3c
000003a0: b075 a93c b5d5 0c3d 4df9 043d a390 10bd
000003b0: 6c2b 55bc 1336 85bc 300a d2bc a0be bdbc
000003c0: 7ca5 4e3c e8f6 a53b 138a 94bc 02fb eb3c
000003d0: 2049 f0bb f6d8 ff3c 5e11 bbbc 6669 8dbc
000003e0: 4089 2dbb 16ab c1bc 0033 f8bb 7e1e e1bc
000003f0: 6617 d6bc aa1f e53c 66ec 1fbd 1cfc 61bc

convLayer0.conv.conv_encoder.en_conv0.conv2d.weight f4 [64, 1, 3, 3]
-0.13913473 0.26499423 0.07125363 -0.21553583 0.3584185 -0.06400954 0.26902053 0.30472964
0.15119281 -0.31461903 -0.12221671 0.17955272 0.3584245 0.32000834 0.34031844 -0.3219328
-0.08258232 -0.2916904 -0.24127175 -0.06572333 0.16023503 -0.11687428 -0.096917465 0.34835246
-0.30676052 0.1620225 -0.07051106 0.23645556 -0.28688157 0.21578643 -0.28914195 0.05287745
-0.20754552 -0.013532793 0.36238056 0.15731268 0.14837913 -0.19077556 0.04797308 -0.10860317
0.09642461 -0.31878072 -0.4168273 0.18948881 -0.39047167 -0.27616218 0.105609335 0.018496567
0.31134507 0.36309868 -0.1014127 -0.22880615 0.10353591 0.30256444 -0.11877328 -0.050855797
0.33118 -0.2790832 -0.14459409 0.24101065 -0.22355568 -0.35193214 -0.03279628 0.18109223
-0.33545893 0.27743855 0.26982155 0.098593794 0.34796673 -0.2897645 -0.016850881 -0.11692357
0.023896297 0.3546387 -0.2515025 0.22878675 0.043890074 -0.05562096 -0.20986684 0.22078726
0.09644729 0.03980186 0.018182341 0.0030654017 -0.01947195 0.4778519 0.3283292 -0.2158301
0.059469543 -0.24702173 0.010339962 -0.21102329 0.059314627 0.14430864 0.31198373 0.21824726
0.19456351 0.06685069 0.28016293 -0.06422694 0.35630944 0.0091121225 0.3281782 -0.010865834
-0.1391351 0.04466879 -0.010054262 0.09410456 0.037530016 0.10523144 -0.10160672 -0.39623663
-0.47129783 0.3345519 -0.22375892 0.27591377 -0.17472924 -0.2272066 0.32870954 0.105358504
0.09305344 0.27345812 0.1867232 -0.15749389 -0.070195265 0.2306155 -0.04410638 0.04491105
0.40632758 -0.097916596 -0.074839346 -0.05538335 0.277469 0.3584281 0.0013179084 0.081147745
0.31032288 -0.050577372 0.29968607 -0.04938832 0.14653532 0.05383898 0.41692957 -0.2596999
0.17467092 0.31740853 0.22870792 -0.060133405 0.20531105 -0.19034436 -0.15669674 0.4266896
0.24329275 0.018873261 -0.45600474 0.15492246 0.16542748 -0.07344118 -0.42005655 -0.025233336
0.047759835 0.06234392 0.005615181 0.26723784 -0.4059849 -0.3533049 -0.2683894 0.17716806
0.026701072 0.11099922 -0.0053025247 0.08861228 -0.2534 0.07788346 0.016137596 0.46307656
0.2950141 0.30906835 -0.030772503 0.10263754 0.081606455 0.05744408 0.25259513 -0.16563128
0.054375455 0.22169624 -0.17026666 -0.32408443 -0.052920405 -0.35448328 0.0984629 -0.006568344
-0.21994366 0.12893075 -0.18149975 -0.36708593 -0.27037245 0.2967319 -0.085760646 -0.4644225
-0.22348167 0.21782355 -0.16924912 -0.24201392 -0.2558045 0.03766283 -0.008008116 -0.07693337
-0.32418728 -0.35327396 -0.03351514 0.03465606 0.25630912 -0.40400618 -0.09255486 0.22344565
0.12203801 -0.16081335 -0.25951526 -0.13224597 0.4466574 0.3864497 0.17647326 -0.17614679
0.1251533 0.17253087 0.14724088 0.317971 0.028882062 -0.035838913 -0.10891255 0.06943974
0.051536053 0.029694136 -0.12263966 0.124223724 -0.25030506 -0.13295516 -0.43955243 0.26705813
0.18687965 -0.37048507 0.3099163 -0.049560647 -0.07103713 -0.14673337 -0.038716126 0.51621735
0.29723376 0.020980222 0.15508471 -0.26114392 -0.19707623 0.22058138 -0.10074181 0.048568886
00000000: 5679 0ebe 53ad 873e 6ced 913d 6db5 5cbe
00000010: a182 b73e 6f17 83bd 0fbd 893e 8605 9c3e
00000020: 4ad2 1a3e bf15 a1be c14c fabd abdc 373e
00000030: 6b83 b73e 22d8 a33e 383e ae3e 60d4 a4be
00000040: eb20 a9bd 7258 95be f10f 77be f499 86bd
00000050: a714 243e c85b efbd aa7c c6bd 415b b23e
00000060: b70f 9dbe 3ae9 253e 1a68 90bd 6821 723e
00000070: 24e2 92be 1ef7 5c3e 6a0a 94be 0696 583d
00000080: d086 54be a6b8 5dbc f289 b93e 9316 213e
00000090: b3f0 173e ab5a 43be 6c7f 443d 576b debd
000000a0: 447a c53d 3a37 a3be 636a d5be 5b09 423e
000000b0: e7eb c7be 2165 8dbe b549 d83d 1d86 973c
000000c0: 9f68 9f3e 12e8 b93e 76b1 cfbd 294c 6abe
000000d0: a30a d43d bae9 9a3e 683f f3bd 2b4e 50bd
000000e0: 6d90 a93e fee3 8ebe 7910 14be 7fcb 763e
000000f0: c8eb 64be 7330 b4be 6455 06bd 3e70 393e
00000100: 46c1 abbe 6d0c 8e3e 0d26 8a3e 8beb c93d
00000110: b228 b23e 035c 94be dc0a 8abc a075 efbd
00000120: 2bc2 c33c 3493 b53e f0c4 80be 1347 6a3e
00000130: 14c6 333d ced2 63bd 55e7 56be 0e16 623e
00000140: 2886 c53d 4607 233d 22f3 943c e8e4 483b
00000150: a483 9fbc 01a9 f43e c41a a83e 9102 5dbe
00000160: 5696 733d 44f3 7cbe f268 293c 7d16 58be
00000170: e5f3 723d a5c5 133e 55bc 9f3e 367c 5f3e
00000180: a83b 473e 04e9 883d 8471 8f3e 6a89 83bd
00000190: 316e b63e 034b 153c f906 a83e 9c06 32bc
000001a0: 6f79 0ebe 9ff6 363d a2ba 24bc e4b9 c03d
000001b0: 13b9 193d 9583 d73d 2f17 d0bd 87df cabe
000001c0: f34d f1be 634a ab3e 0f21 65be 9244 8d3e
000001d0: 39ec 32be d9a8 68be 9e4c a83e 33c6 d73d
000001e0: cd92 be3d b402 8c3e 5e34 3f3e 1446 21be
000001f0: 89c2 8fbd 7826 6c3e e4a8 34bd a6f4 373d
00000200: 2b0a d03e 7f88 c8bd 5f45 99bd a7d9 62bd
00000210: 6b10 8e3e e383 b73e abbd ac3a ca30 a63d
00000220: a4e2 9e3e 382a 4fbd 7470 993e 684b 4abd
00000230: 5b0d 163e 4386 5c3d cb77 d53e 63f7 84be
00000240: efdc 323e 5f83 a23e 6932 6a3e 724e 76bd
00000250: 0f3d 523e a2e9 42be 1c75 20be 0f77 da3e
00000260: bc21 793e 199c 9a3c 7479 e9be fea3 1e3e
00000270: d265 293e 5468 96bd a711 d7be 24b6 cebc
00000280: d19f 433d 575c 7f3d 8dff b73b 66d3 883e
00000290: 41dd cfbe 61e4 b4be 566a 89be 8b6b 353e
000002a0: 35bc da3c 8f53 e33d cdc0 adbb 5b7a b53d
000002b0: a5bd 81be 5d81 9f3d fe32 843c 5f18 ed3e
000002c0: 170c 973e 353e 9e3e 9e16 fcbc a133 d23d
000002d0: 4921 a73d 7c4a 6b3d 2654 813e 3f9b 29be
000002e0: ccb8 5e3d 5704 633e 625a 2ebe 65ee a5be
000002f0: 11c3 58bd d57e b5be eba6 c93d 433b d7bb
00000300: e938 61be 6c06 043e 12db 39be b0f2 bbbe
00000310: 426e 8abe 3eed 973e 47a3 afbd c9c8 edbe
00000320: 61d8 64be 230d 5f3e a44f 2dbe 7fd2 77be
00000330: cff8 82be 5744 1a3d 7934 03bc 3e8f 9dbd
00000340: e0fb a5be 53e0 b4be 2c47 09bd 83f3 0d3d
00000350: f33a 833e e6d9 cebe 678d bdbd f0ce 643e
00000360: 10ef f93d 41ac 24be 2fdf 84be 7d6b 07be
00000370: 47b0 e43e bcdc c53e 68b5 343e d35f 34be
00000380: 3028 003e efab 303e 50c6 163e 18cd a23e
00000390: 139a ec3c d3cb 12bd 8b0d dfbd 6c36 8e3d
000003a0: 7817 533d 1e41 f33c 812a fbbd 0269 fe3d
000003b0: fc27 80be 6625 08be 040d e1be d8bb 883e
000003c0: 615d 3f3e 38b0 bdbe 59ad 9e3e 1b00 4bbd
000003d0: ea7b 91bd 4641 16be cd94 1ebd d226 043f
000003e0: 062f 983e b7de ab3c 87ce 1e3e a8b4 85be
000003f0: 5ace 49be 16e0 613e b951 cebd 2bf0 463d

convLayer0.norm.weight f4 [64]
0.8450628 1.0597416 0.8692126 1.1356183 0.98768824 1.1344222 0.7526782 0.9863174
0.7302573 1.2028874 0.7596402 0.9607175 1.0915347 1.0303401 1.3034736 0.9951787
0.8843893 1.0411953 1.1145104 0.92274094 0.8601249 0.88384914 1.1207205 0.8297817
1.2668357 0.87632585 0.9767467 1.0824633 1.0898707 0.9346721 1.0116016 0.5524582
0.48811793 0.9875199 1.1664914 0.9299855 0.936638 1.2623278 0.7581222 0.9043772
0.89538324 0.9861099 1.4727182 1.240596 0.9356651 0.8196798 1.0489767 1.3062204
0.6803095 1.1031336 0.8844551 1.2122543 0.958317 0.57493114 0.9262154 1.0258634
0.90771276 0.9081491 1.0249653 1.0261637 0.8933995 0.70225555 1.1114317 0.6560481
00000000: 0956 583f 9da5 873f b884 5e3f f15b 913f
00000010: 23d9 7c3f bf34 913f 85af 403f 4c7f 7c3f
00000020: 24f2 3a3f 37f8 993f c877 423f 95f1 753f
00000030: 69b7 8b3f 2fe2 833f 39d8 a63f 08c4 7e3f
00000040: 5667 623f e345 853f 47a8 8e3f c038 6c3f
00000050: 2531 5c3f f043 623f c573 8f3f 936c 543f
00000060: ac27 a23f e456 603f 120c 7a3f 288e 8a3f
00000070: e280 8b3f ac46 6f3f 297c 813f e76d 0d3f
00000080: 98ea f93e 1bce 7c3f 974f 953f 8813 6e3f
00000090: 82c7 6f3f f593 a13f 4c14 423f 4485 673f
000000a0: d637 653f b371 7c3f 0882 bc3f dacb 9e3f
000000b0: bf87 6f3f 89d6 513f de44 863f 3b32 a73f
000000c0: c328 2e3f 7b33 8d3f a66b 623f 262b 9b3f
000000d0: 4354 753f b02e 133f 741c 6d3f 7e4f 833f
000000e0: dd5f 683f 767c 683f 1032 833f 5559 833f
000000f0: d4b5 643f 05c7 333f 6543 8e3f c5f2 273f

convLayer0.norm.bias f4 [64]
-0.06004862 0.24389696 -0.54330313 0.060052883 -0.06996766 0.49690405 -0.27873123 0.105959415
1.038208 0.36856493 0.9236949 0.35477674 0.38195685 0.4702233 -0.060050428 0.0676723
0.5758497 -0.12678012 0.55934817 0.5724155 -0.29641107 -0.1941061 -0.48339662 -0.84571445
-0.44247502 -0.16589132 -1.1293182 0.062498454 0.060045063 0.0724362 0.104752116 1.1493202
-1.1456894 -0.55621064 -0.40582722 0.6178104 0.5111696 -0.20154728 -1.4604793 0.63489866
-0.059318315 -0.2110786 0.29832432 0.060051836 0.06000912 0.086969286 -0.2368957 0.107517205
-1.382626 0.6025644 -0.45176283 0.45338863 0.5038749 1.2011423 -0.44009796 -0.13868205
-0.597233 0.48310095 -0.4781625 0.647351 0.020971425 1.3024536 -0.16570008 1.2062963
00000000: 8bf5 75bd 20c0 793e ea15 0bbf 03fa 753d
00000010: 344b 8fbd 356a fe3e dcb5 8ebe 4001 d93d
00000020: 00e4 843f 8bb4 bc3e 4577 6c3f 4ca5 b53e
00000030: d98f c33e 1cc1 f03e 70f7 75bd c697 8a3d
00000040: e36a 133f a6d2 01be 7131 0f3f d289 123f
00000050: 31c3 97be c0c3 46be c37f f7be be80 58bf
00000060: 168c e2be 6adf 29be 808d 90bf 61fe 7f3d
00000070: d0f1 753d 6e59 943d 4788 d63d ed1c 933f
00000080: f3a5 92bf d263 0ebf 96c8 cfbe d328 1e3f
00000090: 03dc 023f 6962 4ebe fcf0 babf b888 223f
000000a0: c3f7 72bd fd24 58be f7bd 983e eaf8 753d
000000b0: 1fcc 753d f41c b23d c994 72be fb31 dc3d
000000c0: e4f9 b0bf a941 1a3f 754d e7be 8e22 e83e
000000d0: f2fd 003f 08bf 993f 8554 e1be ab02 0ebe
000000e0: 43e4 18bf 0259 f73e b7d1 f4be ccb8 253f
000000f0: 44cc ab3c cdb6 a63f 48ad 29be eb67 9a3f

convLayer0.norm.running_mean f4 [64]
8.9902926e-07 -1.5298489e-05 3.2913629e-06 7.4331047e-06 5.639275e-06 -2.334427e-06 -5.9840204e-06 -2.4217004e-05
-5.105152e-06 -1.7479402e-05 -7.1541767e-06 -1.2892419e-05 1.1127442e-05 -1.5224881e-05 -4.586008e-06 -1.7021282e-05
-1.5900436e-05 1.4020161e-05 1.6950826e-05 -1.2200042e-05 -1.9397807e-05 1.630689e-05 2.6998643e-05 1.8970946e-05
-3.995435e-06 -1.9041168e-05 1.2398866e-05 -4.195674e-06 -6.0062416e-06 3.4571128e-06 3.5674897e-05 -3.3745913e-05
8.737717e-06 2.0289259e-05 -5.452282e-06 1.19245515e-05 -1.3348453e-06 1.1623015e-05 6.432385e-06 1.2905156e-05
-1.30041935e-05 -2.6343769e-06 -4.7529306e-06 2.7084341e-05 -1.3340731e-05 1.3853468e-06 8.378409e-06 -2.6969687e-06
2.6103899e-05 -2.9394052e-06 2.073417e-05 -1.477975e-06 -1.0842806e-05 -2.3596853e-05 -1.8552653e-05 2.6147576e-05
4.731383e-06 1.0490855e-05 1.0176296e-05 -2.5487356e-05 6.625363e-06 1.7902292e-06 3.5236633e-06 -2.8026088e-05
00000000: d254 7135 4155 80b7 2fe1 5c36 e269 f936
00000010: 0139 bd36 27a9 1cb6 58ca c8b6 9f25 cbb7
00000020: ec4c abb6 bba0 92b7 e90d f0b6 854c 58b7
00000030: 00b0 3a37 5e6e 7fb7 82e1 99b6 edc8 8eb7
00000040: ed61 85b7 2238 6b37 9f31 8e37 c8ae 4cb7
00000050: 79b8 a2b7 c8ca 8837 257b e237 cc23 9f37
00000060: 8610 86b6 99ba 9fb7 b904 5037 91c8 8cb6
00000070: 3989 c9b6 bf00 6836 a1a1 1538 668a 0db8
00000080: 3598 1237 da32 aa37 bff2 b6b6 8f0f 4837
00000090: ef28 b3b5 7800 4337 c4d5 d736 3983 5837
000000a0: 962c 5ab7 40ca 30b6 5d7b 9fb6 2e33 e337
000000b0: 01d2 5fb7 27f0 b935 fe90 0c37 92fd 34b6
000000c0: b2f9 da37 9942 45b6 4bee ad37 d65e c6b5
000000d0: 7fe9 35b7 dbf1 c5b7 85a1 9bb7 7e57 db37
000000e0: 45c2 9e36 e101 3037 dcba 2a37 aecd d5b7
000000f0: 6f4f de36 cf47 f035 1378 6c36 9119 ebb7

convLayer0.norm.running_var f4 [64]
0.0030712835 0.0010354047 0.0010287763 0.00041239298 0.0024288427 0.0015768531 0.0027366446 0.0011199426
0.00085290964 0.0014297236 0.0035149055 0.0010973315 0.0015495002 0.0023443778 0.0016202081 0.0027465266
0.0036932891 0.00120542 0.00074659416 0.0033801203 0.0012910475 0.0025290311 0.0038832442 0.0020037224
0.0013023808 0.0011771155 0.0011108408 0.0011787701 0.001957541 0.0038987491 0.0072176894 0.00799426
0.0017918785 0.0014741947 0.00042649294 0.00043688208 0.00081371336 0.0011031952 0.0005291198 0.000839877
0.00085513026 0.0012797477 0.00086751115 0.00646433 0.00087748916 0.003808886 0.0009254867 0.0009225215
0.005652753 0.000971027 0.002683287 0.0012177773 0.0007454967 0.0012870951 0.0016507163 0.0027207239
0.0017826111 0.0010410675 0.001763168 0.006725231 0.0036370573 0.0005068004 0.00034110263 0.0035152957
00000000: 9647 493b 6bb6 873a 01d8 863a 7336 d839
00000010: 382d 1f3b 69ae ce3a 4759 333b 0acb 923a
00000020: cc95 5f3a 9065 bb3a 545a 663b 56d4 8f3a
00000030: 9918 cb3a 22a4 193b 2a5d d43a 12ff 333b
00000040: 1c0b 723b 2fff 9d3a 16b7 433a 0285 5d3b
00000050: 5e38 a93a 1abe 253b 077e 7e3b e250 033b
00000060: a6b4 aa3a 7149 9a3a a299 913a f680 9a3a
00000070: 174a 003b 2882 7f3b 5e82 ec3b 5bfa 023c
00000080: 77dd ea3a c439 c13a ea9a df39 520d e539
00000090: 614f 553a 1799 903a a1b4 0a3a 312b 5c3a
000000a0: d22a 603a 35bd a73a b069 633a bbd2 d33b
000000b0: 4d07 663a 819e 793b 5c9c 723a 5fd5 713a
000000c0: bb3a b93b 858c 7e3a 16da 2f3b d39d 9f3a
000000d0: 706d 433a bfb3 a83a d95c d83a 2c4e 323b
000000e0: 81a6 e93a 6e74 883a 1a1a e73a 545f dc3b
000000f0: b25b 6e3b cdda 043a 05d6 b239 e060 663b

convLayer0.activation.theta f4 [1, 64, 1, 1]
-0.08755118 -0.06232128 0.07880059 -0.01902066 0.06600501 -0.011174969 -0.12716724 -0.048355684
0.10012603 -0.07260664 0.076716654 0.054494716 -0.08774265 0.015175529 -0.046158355 0.010766291
0.07538359 -0.028516779 -0.027540658 -0.02365873 0.055637836 0.01855772 -0.13510056 0.0671109
-0.15564243 0.06306044 0.059588715 -0.0046097864 -0.06507389 -0.04733473 -0.043125868 0.19368699
0.17195202 0.003476542 -0.09175299 0.05701564 0.0073713874 0.013986131 0.26026392 0.037858885
0.0017592917 -0.20170899 -0.005084706 -0.090201296 -0.032901485 0.010260077 -0.045009848 -0.034825556
0.15823515 -0.092227794 0.094444305 -0.075140916 -0.07988873 0.2598132 0.086551294 -0.088544756
0.109339364 -0.062206425 0.041801393 -0.075512014 0.053000685 0.18379824 -0.012042905 0.12480144
00000000: 084e b3bd 9944 7fbd 3462 a13d 37d1 9bbc
00000010: a22d 873d 3817 37bc 2138 02be 9c10 46bd
00000020: e00e cd3d cab2 94bd 9f1d 9d3d da35 5f3d
00000030: 6bb2 b3bd c8a2 783c 8b10 3dbd 1965 303c
00000040: b662 9a3d 059c e9bc f29c e1bc f4cf c1bc
00000050: 80e4 633d 5c06 983c cd57 0abe 7171 893d
00000060: bb60 1fbe d525 813d 4c13 743d b10d 97bb
00000070: 7645 85bd 10e2 41bd c0a4 30bd e255 463e
00000080: 3114 303e b2d6 633b fee8 bbbd 3b89 693d
00000090: ae8b f13b 1626 653c 5041 853e eb11 1b3d
000000a0: 0998 e63a cd8c 4ebe 9b9d a6bb 75bb b8bd
000000b0: b5c3 06bd e219 283c 3f5c 38bd 3ea5 0ebd
000000c0: 6508 223e ede1 bcbd 046c c13d 7be3 99bd
000000d0: b49c a3bd 3c06 853e ce41 b13d f456 b5bd
000000e0: 51ed df3d 2acc 7ebd f037 2b3d 0ba6 9abd
000000f0: 3f17 593d 9b35 3c3e 9b4f 45bc e697 ff3d

convLayer.0.conv.conv_decoder.de_conv0.conv2d.weight f4 [1, 64, 3, 3]
0.033357825 0.04880949 0.035477597 -0.016379457 0.049745843 0.0052512977 0.05457048 0.078504026
-0.0034877933 -0.037977688 0.020059464 -0.027836163 0.23879226 0.10636228 0.19921625 0.045286644
-0.10375636 -0.14360416 -0.069515884 0.0038930173 0.037198942 0.030388977 -0.031879306 0.07466788
-0.07369465 -0.06326945 -0.0073866406 0.0069162804 0.009127745 0.041158598 -0.16483803 -0.026292484
-0.14399758 0.11560303 -0.09164396 0.09406602 -0.028257985 0.025389591 -0.019331079 -0.070924416
0.033590786 0.124213725 0.06355806 0.023840196 0.049499948 0.09252026 0.0790905 0.020884575
0.06860034 0.15291823 0.06827267 -0.0066873664 0.097231425 0.016427968 -0.025748305 -0.07684063
0.06156786 -0.0060151666 -0.13500075 -0.010845562 0.04921461 -0.047344618 0.005139541 0.016569864
-0.0013279117 -0.00060937554 0.12102016 0.084646255 0.12265299 -0.0028774794 -0.10535635 -0.07107758
0.0065825093 0.06961864 -0.001368047 -0.019375673 0.08912247 0.037203837 -0.057470854 0.16412725
-0.03772268 -0.07655466 0.067618094 -0.043485645 0.20632137 0.15564215 0.10866564 -0.034516696
0.018511048 -0.08154614 0.032635223 0.050418787 -0.014932252 0.056568403 0.059602626 0.06074467
0.05851533 0.005006052 -0.010834622 -0.054194104 -0.035955813 -0.11137772 -0.09679538 0.010895626
0.058494095 -0.016054083 0.11554859 -0.11875624 -0.044391442 0.037541427 0.02985014 0.09328056
-0.1741262 0.03134109 0.04106704 0.11878235 0.080071986 0.06251982 -0.040033713 0.06786134
0.13041574 0.10627993 0.052130386 0.014864667 0.09604016 -0.09869337 0.018110786 0.049920388
0.03754316 -0.08422137 -0.18830983 -0.118125506 0.07164731 -0.1032 -0.037161477 -0.051826794
0.09381879 -0.0014446952 0.06271514 0.088834226 0.023214646 0.01842605 0.017758807 -0.034718208
0.013572653 0.107374094 -0.00041392044 -0.03200727 0.090635255 -0.035175547 0.06524603 0.09024578
-0.012955527 0.039034557 0.06451037 -0.030601896 -0.07859704 0.02085783 0.07701287 0.14252487
-0.09195996 0.09299512 0.044078033 0.07003487 0.14257334 0.086895876 -0.19906707 -0.1264508
-0.046533424 0.26448083 0.11203586 0.037431646 0.007268633 0.04011006 0.084546894 0.11200151
-0.033561144 0.02919032 -0.05844368 -0.024159988 -0.022717146 -0.031543296 0.06434305 0.030840974
-0.04411933 -0.009113163 -0.06796564 -0.11136453 -0.041179817 0.11327874 -0.056156546 0.11450556
-0.006895611 0.08860208 0.048831277 0.04551353 0.06273224 0.0778767 0.027294463 -0.025510084
-0.04034514 -0.039506312 -0.074046895 0.017559752 -0.053605888 -0.008733076 0.0056584505 0.08644668
0.02189411 -0.010751334 0.11876796 -0.0041552116 0.013020585 -0.11792227 -0.059305117 -0.0051163468
0.01739728 -0.051963203 -0.007153965 0.15307347 0.14886178 -0.04471155 -0.10739793 -0.06461823
-0.025529373 -0.05839501 -0.018137656 -0.052885294 -0.08935364 -0.02163181 -0.059439234 0.07873219
0.0035995096 0.0041177073 0.102859765 -0.10869092 0.07121442 0.043625664 -0.14391817 -0.026340565
-0.0066823354 0.004594226 -0.04711249 -0.12121785 0.028840149 -0.1108844 0.11350027 0.1527124
-0.029331032 -0.0764242 -0.04592489 -0.06974923 -0.02009847 0.05585232 -0.00052048673 0.08788886
00000000: 37a2 083d 76ec 473d f550 113d 362e 86bc
00000010: 4cc2 4b3d 1413 ac3b 4c85 5f3d b8c6 a03d
00000020: 7693 64bb 7e8e 1bbd bf53 a43c aa08 e4bc
00000030: f585 743e 78d4 d93d 58ff 4b3e 7d7e 393d
00000040: 377e d4bd f80c 13be 585e 8ebd fe21 7f3b
00000050: eb5d 183d 4ef2 f83c e093 02bd 79eb 983d
00000060: 38ed 96bd 6a93 81bd a20b f2bb f7a1 e23b
00000070: 8a8c 153c eb95 283d 4dcb 28be 5663 d7bc
00000080: 1a74 13be 48c1 ec3d d4af bbbd afa5 c03d
00000090: 4a7d e7bc d5fd cf3c 365c 9ebc d240 91bd
000000a0: 7e96 093d c463 fe3d ba2a 823d 844c c33c
000000b0: 75c0 4a3d 437b bd3d 33fa a13d 2116 ab3c
000000c0: 567e 8c3d 9996 1c3e 8bd2 8b3d b221 dbbb
000000d0: 4521 c73d f293 863c 1cee d2bc 9f5e 9dbd
000000e0: 952e 7c3d e01a c5bb a33d 0abe 96b1 31bc
000000f0: 4295 493d 6eec 41bd 9869 a83b 86bd 873c
00000100: 530d aeba 80be 1fba 6bd9 f73d 045b ad3d
00000110: 7e31 fb3d 1894 3cbb 12c5 d7bd 1f91 91bd
00000120: 17b2 d73b 3894 8e3d 0a50 b3ba bbb9 9ebc
00000130: d785 b63d 0d63 183d 8f66 6bbd f910 283e
00000140: 1983 1abd b1c8 9cbd 5b7b 8a3d 011e 32bd
00000150: e945 533e a860 1f3e 178c de3d 6161 0dbd
00000160: 7ba4 973c aa01 a7bd 83ac 053d ee83 4e3d
00000170: 67a6 74bc 45b4 673d e221 743d 67cf 783d
00000180: c5ad 6f3d cf09 a43b b383 31bc a3fa 5dbd
00000190: 6746 13bd 011a e4bd a83c c6bd 9183 323c
000001a0: 8197 6f3d da83 83bc bda4 ec3d 7936 f3bd
000001b0: cdd3 35bd 0ac5 193d 4888 f43c e109 bf3d
000001c0: 234e 32be 845f 003d ea35 283d 2944 f33d
000001d0: c8fc a33d 640a 803d 64fa 23bd e3fa 8a3d
000001e0: b48b 053e 4ba9 d93d ac86 553d ef8a 733c
000001f0: b4b0 c43d c01f cabd 125d 943c 5279 4c3d
00000200: dbc6 193d 417c acbd 4bd4 40be c9eb f1bd
00000210: d3bb 923d 865a d3bd a236 18bd 5548 54bd
00000220: 1124 c03d ed5b bdba cc70 803d b8ee b53d
00000230: a42c be3c 3af2 963c eb7a 913c ae34 0ebd
00000240: d55f 5e3c f3e6 db3d 7603 d9b9 0e1a 03bd
00000250: fa9e b93d 3c14 10bd b69f 853d c8d2 b83d
00000260: 6b43 54bc b3e2 1f3d 031e 843d d4b0 fabc
00000270: 7cf7 a0bd 0ade aa3c ecb8 9d3d 0af2 113e
00000280: 8155 bcbd 3a74 be3d 2b8b 343d 716e 8f3d
00000290: bffe 113e 77f6 b13d 3dd8 4bbe 527c 01be
000002a0: d599 3ebd 086a 873e 0f73 e53d ed51 193d
000002b0: b72d ee3b 724a 243d ec26 ad3d 0c61 e53d
000002c0: 6977 09bd 8a20 ef3c a462 6fbd 2beb c5bc
000002d0: 4f19 babc 8b33 01bd 4ac6 833d 36a6 fc3c
000002e0: 78b6 34bd 604f 15bc 9231 8bbd 1613 e4bd
000002f0: 2bac 28bd affe e73d 6804 66bd e481 ea3d
00000300: 94f4 e1bb 0275 b53d 4e03 483d 656c 3a3d
00000310: c379 803d d27d 9f3d a398 df3c 86fa d0bc
00000320: f240 25bd 5fd1 21bd e6a5 97bd 78d9 8f3c
00000330: d991 5bbd 2d15 0fbc 866a b93b f50a b13d
00000340: 475b b33c 5d26 30bc 9e3c f33d 7128 88bb
00000350: 4b54 553c 3b81 f1bd ece9 72bd 07a7 a7bb
00000360: be84 8e3c 5ed7 54bd cf6b eabb 4bbf 1c3e
00000370: 396f 183e 7523 37bd 72f3 dbbd 9056 84bd
00000380: fa22 d1bc 9b2f 6fbd 6c95 94bc 409e 58bd
00000390: 0bff b6bd 3235 b1bc 8e76 73bd 583e a13d
000003a0: c0e5 6b3b d5ed 863b 24a8 d23d 5899 debd
000003b0: ded8 913d d3b0 323d 495f 13be 2bc8 d7bc
000003c0: 7ef7 dabb 298b 963b 07f9 40bd 1041 f8bd
000003d0: 2d42 ec3c 5c17 e3bd d472 e83d a460 1c3e
000003e0: a247 f0bc 4a84 9cbd bd1b 3cbd afd8 8ebd
000003f0: 8ca5 a4bc 67c5 643d 4671 08ba 13ff b33d

convLayer.0.conv.conv_encoder.en_conv0.conv2d.weight f4 [64, 1, 3, 3]
0.09399029 -0.1951642 0.2915242 0.3347633 -0.031566013 -0.3026741 0.10546994 0.20455715
0.16371597 -0.19341181 0.009676755 0.14976081 0.25617054 -0.31057486 -0.33630222 -0.08982996
-0.3172974 0.2970104 0.2572849 -0.18120734 -0.16430655 0.02853778 0.17125252 0.20208614
0.23448329 -0.2032838 0.20387977 -0.14513206 0.06389468 0.08061196 0.11471824 -0.07614575
-0.07163775 0.044112235 -0.120228335 0.242495 -0.042657003 -0.13026318 0.26294613 0.10869598
0.014102132 -0.1004282 0.17277518 0.3478507 -0.013951836 0.11773261 0.05356368 0.20135057
-0.08216721 -0.22152613 -0.029429298 0.17205219 -0.121194266 0.29638353 0.2949964 -0.22241245
-0.04115661 -0.17047338 -0.36721227 -0.28780377 -0.0038927263 -0.1798079 0.30827314 -0.055160593
-0.24541336 -0.14362526 0.29219657 0.21937369 0.27179807 -0.2815031 -0.3063491 0.03237166
0.08715874 -0.18916449 0.15635714 -0.2522224 -0.43956214 -0.1609938 0.18428174 0.255922
-0.18806525 -0.07050453 -0.044652402 0.36918104 0.017597228 -0.39735898 -0.06201161 0.1515223
0.1430735 -0.15485819 -0.20862933 -0.04284937 0.046628274 0.25417888 0.15852459 0.01701209
0.013577108 0.20511162 -0.09524787 -0.27542645 -0.06362761 -0.23355938 0.09947773 -0.2544339
-0.20134848 -0.1200401 -0.06338247 0.043779537 -0.30408335 0.17736657 -0.17312752 -0.018261135
0.3660278 0.099937856 -0.19400245 -0.27346987 0.12643296 0.04515128 -0.113252856 0.17865734
-0.061585274 -0.22640805 0.25529224 0.11967148 -0.17637238 -0.027950255 0.32830474 -0.2018936
-0.013370651 0.21234827 -0.074072905 -0.14490716 -0.2623901 -0.12276982 0.33369014 -0.070177585
-0.120174915 0.015587911 0.19708908 0.28017008 0.11554723 0.009620104 -0.2710908 -0.041549657
-5.891278e-05 -0.07615589 0.29790714 0.009839569 -0.11172187 0.10305623 -0.17717676 -0.3891637
0.29408914 -0.27076843 0.13306782 -0.04862328 -0.097658224 0.286486 0.18921524 -0.075310685
0.10849417 -0.25813162 0.11839733 -0.057445984 0.15505394 -0.1959813 0.3914737 0.071007654
-0.006901154 -0.19693391 0.28944468 -0.2389793 0.2273693 -0.26704073 -0.20154473 0.005663145
0.10145599 0.2145088 -0.2456527 0.2374688 -0.023576783 -0.15593821 -0.20667431 0.055872716
0.18609385 -0.019618096 0.2561717 0.25321186 -0.23135613 0.32343996 0.08593752 0.010078774
0.4319153 0.34835398 -0.20915395 -0.21906611 -0.08341223 -0.21088366 -0.25521243 0.2850122
-0.3716178 0.058523506 -0.038723115 0.29531413 0.10406834 -0.20668058 -0.18612109 0.26872113
-0.17001912 -0.1340817 -0.4417039 0.06705175 -0.15689653 -0.37479156 -0.014349141 0.055598404
0.18979904 0.29977697 -0.15033112 -0.2152769 -0.058406968 -0.16994043 0.0675643 0.2546633
-0.0824531 0.06728576 0.019734967 0.2142915 -0.24441384 0.087910935 0.21880028 -0.12913729
-0.3545877 -0.13175341 0.077538975 -0.33950448 0.041190445 -0.17959991 0.3319237 0.13066314
-0.1381276 0.01597572 -0.04320997 -0.062408254 -0.18868542 0.22387202 0.27511024 -0.3315212
-0.1479915 -0.019719185 -0.2530464 0.24325182 0.038760778 -0.22753079 0.12382621 0.0327929
00000000: fb7d c03d 20d9 47be a942 953e 1866 ab3e
00000010: 5d4b 01bd 1af8 9abe a000 d83d 6e77 513e
00000020: 29a5 273e bf0d 46be 418b 1e3c e65a 193e
00000030: c928 833e ab03 9fbe ce2f acbe c5f8 b7bd
00000040: ce74 a2be bf11 983e d9ba 833e 6b8e 39be
00000050: fa3f 28be 10c8 e93c d25c 2f3e abef 4e3e
00000060: 631c 703e a129 50be dcc5 503e 809d 14be
00000070: 37db 823d e217 a53d 66f1 ea3d 4ef2 9bbd
00000080: d0b6 92bd 08af 343d 463a f6bd 9c50 783e
00000090: 1cb9 2ebd b663 05be e0a0 863e ff9b de3d
000000a0: a10c 673c 4dad cdbd faeb 303e 7d19 b23e
000000b0: 3e96 64bc cb1d f13d 9765 5b3d d82e 4e3e
000000c0: 4847 a8bd bfd7 62be b615 f1bc 732e 303e
000000d0: b334 f8bd 95bf 973e c509 973e 17c0 63be
000000e0: d593 28bd 9390 2ebe 3f03 bcbe 045b 93be
000000f0: 1c1d 7fbb 901f 38be fad5 9d3e 13f0 61bd
00000100: a44d 7bbe 8012 13be ca9a 953e 7fa3 603e
00000110: 1e29 8b3e 2d21 90be cad9 9cbe 2598 043d
00000120: 4880 b23d 56b4 41be 161c 203e 4b23 81be
00000130: 4a0e e1be 8fdb 24be 5ab4 3c3e 3508 833e
00000140: 2d94 40be ae64 90bd 70e5 36bd 4c05 bd3e
00000150: 1028 903c a372 cbbe e3ff 7dbd a928 1b3e
00000160: dc81 123e 2593 1ebe eda2 55be d282 2fbd
00000170: 4afd 3e3d bc23 823e 4554 223e f05c 8b3c
00000180: 8572 5e3c c808 523e 5111 c3bd b204 8dbe
00000190: 314f 82bd 312a 6fbe fbba cb3d 2945 82be
000001a0: 4c2e 4ebe 95d7 f5bd abce 81bd 2c52 333d
000001b0: d0b0 9bbe 959f 353e 5748 31be 6098 95bc
000001c0: ff67 bb3e 38ac cc3d 94a8 46be 3e04 8cbe
000001d0: a477 013e 8cf0 383d 1df1 e7bd f3f1 363e
000001e0: d740 7cbd 83d7 67be aab5 823e 5216 f53d
000001f0: f69a 34be eff7 e4bc 8f17 a83e 32bd 4ebe
00000200: 9310 5bbc d371 593e 89b3 97bd 8b62 14be
00000210: ff57 86be be6e fbbd 6fd9 aa3e 44b9 8fbd
00000220: 441e f6bd 7064 7f3c b8d1 493e 7472 8f3e
00000230: 07a4 ec3d a49d 1d3c 6acc 8abe f92f 2abd
00000240: 1e19 77b8 9ff7 9bbd 4987 983e 2536 213c
00000250: 70ce e4bd 250f d33d d36d 35be 7740 c7be
00000260: da92 963e 29a2 8abe ee42 083e 3429 47bd
00000270: 0901 c8bd 4bae 923e a4c1 413e 7d3c 9abd
00000280: 3132 de3d d429 84be 4d7a f23d 7b4c 6bbd
00000290: 76c6 1e3e 52af 48be 3e6f c83e 766c 913d
000002a0: 1323 e2bb 0ba9 49be 1832 943e fdb6 74be
000002b0: 7fd3 683e 90b9 88be be61 4ebe e791 b93b
000002c0: 28c8 cf3d 32a8 5b3e 628c 7bbe 052b 733e
000002d0: 1924 c1bc 44ae 1fbe 6ea2 53be cada 643d
000002e0: 638f 3e3e 21b6 a0bc f028 833e fca4 813e
000002f0: 9fe8 6cbe ec99 a53e 0300 b03d 7121 253c
00000300: 0124 dd3e 745b b23e 742c 56be de52 60be
00000310: 08d4 aabd e3f1 57be 34ab 82be 1eed 913e
00000320: b044 bebe 58b6 6f3d 219c 1ebd 6a33 973e
00000330: c821 d53d 13a4 53be 8796 3ebe d195 893e
00000340: 7e19 2ebe b74c 09be 0327 e2be 6e52 893d
00000350: 7ca9 20be aee4 bfbe a918 6bbc 27bb 633d
00000360: ae5a 423e 5e7c 993e 67f0 19be 8c71 5cbe
00000370: 253c 6fbd dd04 2ebe 275f 8a3d 3a63 823e
00000380: 2cdd a8bd 1ecd 893d 3aab a13c 3b6f 5b3e
00000390: 9f47 7abe a60a b43d 2e0d 603e 913c 04be
000003a0: 858c b5be 5eea 06be c1cc 9e3d 88d3 adbe
000003b0: 50b7 283d 0ae9 37be e7f1 a93e 8fcc 053e
000003c0: 5271 0dbe 83df 823c f0fc 30bd cc9f 7fbd
000003d0: c036 41be b53e 653e 40db 8c3e 26bd a9be
000003e0: 158b 17be 218a a1bc 4c8f 81be 0117 793e
000003f0: 9fc3 1e3d d5fd 68be 9998 fd3d d951 063d

convLayer.0.norm.weight f4 [64]
0.9110339 1.0201287 0.747358 0.9037324 0.9089456 1.1753869 0.8972232 0.965049
0.79787374 1.0882331 0.81650585 0.79589975 1.2236731 1.0260123 1.1122888 1.201678
0.86204046 1.0753721 0.962898 0.90613323 0.8058829 0.9483961 1.2101518 0.8584554
1.31975 0.75760055 1.0263119 0.93998146 1.139192 0.926659 0.9698606 0.7495133
0.82292765 0.9481638 0.8346325 1.0032881 0.82177776 0.9368897 0.8746273 0.894511
0.7633723 0.99076366 1.3118044 1.3111386 0.92120844 0.81025594 0.935872 1.2209963
0.8393178 1.0987744 0.9108053 0.9910803 0.72843915 0.7361491 0.9037361 0.9334889
1.0323592 0.9233128 0.87158567 1.1849264 1.1123447 1.0594084 0.86878484 0.8593697
00000000: 8539 693f 9493 823f db52 3f3f 025b 673f
00000010: a9b0 683f 1473 963f 6bb0 653f 740d 773f
00000020: 7441 4c3f 394b 8b3f 8706 513f 16c0 4b3f
00000030: 52a1 9c3f 5f54 833f 7b5f 8e3f 96d0 993f
00000040: afae 5c3f cba5 893f 7c80 763f 59f8 673f
00000050: 574e 4e3f 16ca 723f 41e6 9a3f bcc3 5b3f
00000060: 91ed a83f 1cf2 413f 305e 833f a0a2 703f
00000070: 0bd1 913f 8639 6d3f c948 783f 1be0 3f3f
00000080: 63ab 523f ddba 723f 7aaa 553f bf6b 803f
00000090: 0760 523f 01d8 6f3f 93e7 5f3f acfe 643f
000000a0: 5e6c 433f b0a2 7d3f 35e9 a73f 64d3 a73f
000000b0: 51d4 6b3f ef6c 4f3f 4f95 6f3f 9b49 9c3f
000000c0: 88dd 563f a4a4 8c3f 892a 693f 70b7 7d3f
000000d0: fd7a 3a3f 4474 3c3f 405b 673f 21f9 6e3f
000000e0: 5924 843f 3a5e 6c3f 3d20 5f3f abab 973f
000000f0: 5061 8e3f b29a 873f af68 5e3f a7ff 5b3f

convLayer.0.norm.bias f4 [64]
-0.06005015 0.2492854 -0.9405914 -0.067520544 -0.17378563 0.135875 0.039495 -0.060027022
0.10136472 -0.35448396 0.20915206 -0.028321685 0.19136286 -0.0019850275 0.052225582 0.08528041
0.27280724 -0.3573885 0.14010915 -0.036854073 0.0018312264 -0.09682246 -0.057740826 -0.10053882
0.28824377 0.56689113 -0.32101873 0.061274566 -0.060027637 0.32260656 -0.020231571 0.31229568
0.060033817 -0.05346962 -0.42378885 -0.017362555 0.21929553 0.0915892 -0.00467334 0.062491484
0.054072198 0.060051586 0.39561492 -0.06005342 -0.20498209 0.24097098 0.098394565 0.060052257
-0.29539564 -0.060050633 -0.7645769 0.5385348 -0.0024451867 0.25347245 -0.069088146 -0.16725494
0.011099615 -0.15663482 0.012963641 0.32041183 -0.14413954 -0.025036642 -0.032040462 0.04442768
00000000: 25f7 75bd ac44 7f3e 99ca 70bf 3648 8abd
00000010: dcf4 31be d122 0b3e 82c5 213d e5de 75bd
00000020: 4e98 cf3d ec7e b5be f52b 563e e102 e8bc
00000030: a0f4 433e 3c17 02bb 7eea 553d 7fa7 ae3d
00000040: 64ad 8b3e a0fb b6be c678 0f3e 4cf4 16bd
00000050: c305 f03a db4a c6bd a581 6cbd 4ce7 cdbd
00000060: b094 933e c71f 113f 915c a4be 0afb 7a3d
00000070: 8adf 75bd b02c a53e aebc a5bc 38e5 9f3e
00000080: 05e6 753d f602 5bbd dafa d8be eb3b 8ebc
00000090: 028f 603e 1e93 bb3d d122 99bb 12f7 7f3d
000000a0: cf7a 5d3d a7f8 753d 0a8e ca3e 93fa 75bd
000000b0: d3e6 51be 19c1 763e 1783 c93d 5bf9 753d
000000c0: 193e 97be a7f7 75bd 50bb 43bf 6bdd 093f
000000d0: 6d3f 20bb 24c7 813e 167e 8dbd e144 2bbe
000000e0: 29db 353c e164 20be 7465 543c 050d a43e
000000f0: 5199 13be a519 cdbc dc3c 03bd cdf9 353d

convLayer.0.norm.running_mean f4 [64]
-3.0920355 2.705378 -2.9709582 -0.5337046 -2.868174 -1.2484095 2.6904922 1.1029699
3.4251177 0.62799686 -0.7177019 5.174541 1.3040586 0.50025415 -0.3135305 -0.45208395
0.75236046 0.012324707 -2.002122 1.346253 -0.78408337 -2.3549201 0.86838675 3.28746
-1.137166 1.0002528 -0.6125856 1.2534897 0.20204267 1.5237396 -1.0022371 4.548281
-1.0515895 0.03829839 3.2593725 -1.0719181 0.5506761 -3.4211802 -0.8611775 -1.4437246
2.571457 -0.022167657 0.018019807 -3.28761 1.6400576 1.109822 -1.7220417 1.250093
-0.42421395 0.55313945 0.044672944 -2.261838 4.533627 -4.0140877 -1.7850144 -1.1507046
-5.90491 -1.2599376 -2.0970337 -0.30695772 -0.48150063 0.24066734 -5.758107 2.9761343
00000000: e9e3 45c0 ea24 2d40 2e24 3ec0 dda0 08bf
00000010: 2a90 37c0 e2cb 9fbf 0631 2c40 1e2e 8d3f
00000020: 2135 5b40 67c4 203f 50bb 37bf d795 a540
00000030: 64eb a63f a810 003f 1287 a0be 8c77 e7be
00000040: b29a 403f 91ed 493c c422 00c0 0552 ac3f
00000050: b0b9 48bf 03b7 16c0 984e 5e3f bf65 5240
00000060: a88e 91bf 4908 803f 69d2 1cbf 5a72 a03f
00000070: 46e4 4e3e e609 c33f 4e49 80bf 858b 9140
00000080: 7c9a 86bf c6de 1c3d 8f99 5040 9d34 89bf
00000090: 1cf9 0c3f 9ef4 5ac0 2176 5cbf f8cb b8bf
000000a0: c092 2440 f298 b5bc 469e 933c 3468 52c0
000000b0: 68ed d13f a60e 8e3f dd6b dcbf 0c03 a03f
000000c0: 9232 d9be 8c9a 0d3f fafa 363d f4c1 10c0
000000d0: 7913 9140 6873 80c0 5a7b e4bf 4a4a 93bf
000000e0: 06f5 bcc0 a345 a1bf cd35 06c0 9029 9dbe
000000f0: 4087 f6be 8071 763e 6a42 b8c0 fc78 3e40

convLayer.0.norm.running_var f4 [64]
11.011902 19.301718 14.2396345 2.0238144 18.14874 12.50851 30.860485 29.010393
35.31899 17.799458 8.865502 30.101479 17.390156 5.7425666 11.056659 14.511787
15.010671 15.401498 15.320018 8.151132 22.852083 47.15219 9.508538 18.582958
18.816214 23.24739 8.3482895 15.066167 8.819605 23.908798 11.426892 38.57806
41.43198 3.8116484 19.449474 25.896175 11.221277 25.438185 7.2473555 31.222107
16.622852 4.715587 18.657051 22.041409 19.005005 17.870451 5.770977 7.480709
17.919607 20.291992 8.945415 5.6830754 32.95555 32.919125 18.741966 29.339333
34.85074 12.375242 31.945995 5.0869455 9.535118 13.18522 37.623016 10.961806
00000000: c030 3041 eb69 9a41 8bd5 6341 2d86 0140
00000010: 9f30 9141 db22 4841 46e2 f641 4915 e841
00000020: a546 0d42 4a65 8e41 19d9 0d41 d4cf f041
00000030: 0a1f 8b41 1bc3 b740 13e8 3041 4830 6841
00000040: b52b 7041 896c 7641 cb1e 7541 096b 0241
00000050: 11d1 b641 d89b 3c42 f922 1841 e6a9 9441
00000060: 9b87 9641 a8fa b941 9892 0541 050f 7141
00000070: 1a1d 0d41 3845 bf41 8dd4 3641 ef4f 1a42
00000080: 59ba 2542 0cf2 7340 8698 9b41 5e2b cf41
00000090: 5a8a 3341 6781 cb41 56ea e740 e0c6 f941
000000a0: 9afb 8441 17e6 9640 a441 9541 ce54 b041
000000b0: 400a 9841 aff6 8e41 d8ab b840 f861 ef40
000000c0: 5b5b 8f41 0056 a241 6b20 0f41 c1db b540
000000d0: 7cd2 0342 2fad 0342 8cef 9541 f4b6 ea41
000000e0: 2867 0b42 fe00 4641 6691 ff41 42c8 a240
000000f0: d88f 1841 a9f6 5241 f87d 1642 8f63 2f41

convLayer.0.activation.theta f4 [1, 64, 1, 1]
-0.02237604 0.016756855 0.1006926 -0.017968198 0.042388305 -0.007868798 0.05787046 -0.004631905
0.08669717 -0.047705702 0.0003599092 0.12291318 -0.024320142 0.033484705 -0.024550486 -0.052149683
0.0048192632 -0.060622953 0.0039475467 0.20954747 0.046676025 0.010194028 -0.025332605 0.059643
-0.03301923 0.19328168 0.037533525 -0.023528049 -0.02303845 -0.019760516 0.040490694 0.09619972
-0.036591154 -0.032323584 0.08908686 0.08416775 0.015311939 0.011801395 0.063844904 0.07007263
0.06689254 -0.009938133 -0.038596183 -0.0127562685 -0.022087086 0.13513944 0.014298022 -0.02246171
0.0051909783 -0.039360348 0.07912346 0.015278966 0.11802855 0.10346154 0.096169196 0.000987495
0.084900394 0.08735122 0.06162491 -0.015511705 0.0210816 -0.023455549 0.072719164 0.04757971
00000000: f54d b7bc ac45 893c ec37 ce3d 0b32 93bc
00000010: 5c9f 2d3d 22ec 00bc 9309 6d3d 3cc7 97bb
00000020: 498e b13d 0e67 43bd 32b2 bc39 e8b9 fb3d
00000030: 093b c7bc 4227 093d 1a1e c9bc e89a 55bd
00000040: e9ea 9d3b c64f 78bd 6c5a 813b 9d93 563e
00000050: 5c2f 3f3d da04 273c 5386 cfbc 384c 743d
00000060: 2c3f 07bd a2eb 453e c1bc 193d e5bd c0bc
00000070: 22bb bcbc cee0 a1bc 92d9 253d 5c04 c53d
00000080: 9be0 15bd bc65 04bd 2c73 b63d 2460 ac3d
00000090: edde 7a3c a35a 413c 1ec1 823d 3d82 8f3d
000000a0: f5fe 883d 8dd3 22bc 0817 1ebd abff 50bc
000000b0: faef b4bc fe61 0a3e 4042 6a3c 9f01 b8bc
000000c0: 1519 aa3b 5138 21bd 7b0b a23d a154 7a3c
000000d0: f4b8 f13d a5e3 d33d 5bf4 c43d d56e 813a
000000e0: 42e0 ad3d 32e5 b23d 676a 7c3d ce24 7ebc
000000f0: 52b3 ac3c da25 c0bc c9ed 943d f1e2 423d

convLayer.1.conv.conv_decoder.de_conv0.conv2d.weight f4 [1, 64, 3, 3]
0.009880129 -0.022201614 -0.11523092 -0.0951093 -0.13173498 0.0062549873 0.036602817 -0.16396704
-0.12171364 -0.017919732 -0.00551804 0.089474715 -0.097124 -0.15184103 0.059411746 -0.030149132
-0.029208167 0.06139638 -0.00091313926 -0.08084452 0.010049481 -0.044983473 0.048410904 0.033366915
-0.07510087 -0.1303925 0.032035697 0.042213995 -0.15494601 0.04459513 -0.027968464 -0.10773738
0.11436806 -0.048152007 0.09728824 -0.08502076 0.05045696 0.026015187 -0.09836484 -0.009127993
-0.06999007 -0.0340739 -0.045231402 -0.08476575 -0.092471175 0.04010052 -0.11550157 0.031366304
-0.0931131 -0.24603638 -0.20613706 -0.053691447 -0.0876929 0.040241342 -0.014680635 -0.0030713312
0.072498955 -0.10829465 -0.08243477 0.013208537 0.011279777 -0.009718514 0.08766796 -0.08697624
-0.07884182 0.00044264126 0.03587242 0.18379201 0.18390383 -0.051022828 -0.046524577 -0.060503434
0.02353762 -0.00080518087 -0.027623594 0.014494798 -0.09104425 -0.06921512 0.05600504 0.008802132
-0.010004459 -0.019753888 0.017671244 0.12388516 -0.1518919 -0.19232464 -0.0829124 -0.02758266
-0.061713476 0.010119144 -0.15484801 -0.023057045 -0.116737 0.009310372 -0.0038104837 0.11417569
0.056373935 -0.012186861 0.012552358 0.050027538 0.03537247 -0.02458979 0.03458023 0.019416533
-0.03913273 0.07963032 -0.004823785 -0.013733158 -0.047292065 -0.13768184 0.015106284 0.011952754
0.119280025 0.22063139 -0.06677953 -0.026634695 -0.048221588 -0.049435243 -0.035278138 0.16420136
0.00780886 -0.07690591 -0.008600444 -0.046919428 -0.044774067 0.06901308 0.034584314 -0.09734485
-0.022291403 -0.02736149 0.02452515 0.097726 0.03804459 -0.16829343 0.04390924 -0.057198
-0.12524123 -0.06857108 0.14894073 0.16073185 0.114167705 -0.030336326 -0.18333468 -0.128365
-0.010027113 -0.13792415 0.03507548 0.0049523194 -0.06770408 0.027528817 0.018773383 -0.10385362
-0.018706959 -0.055718977 -0.057102043 -0.10532232 0.10045559 0.15526982 -0.027919086 0.015290138
0.13772044 0.05435368 -0.055133782 -0.083050355 -0.022192676 -0.031761296 0.01445429 0.047617983
0.036765892 -0.05245314 -0.051976714 -0.022353576 -0.119322754 -0.0032085972 -0.042678315 -0.061946534
0.0036275212 -0.019639378 0.14262868 0.06402313 0.009486919 0.050917003 0.02160297 -0.009106359
-0.008667861 0.05060886 -0.07235002 -0.03988144 0.07015563 -0.02931316 -0.04941019 0.035466276
-0.0642621 -0.030271592 0.036268093 -0.05542479 -0.055960555 0.001604213 -0.06617841 -0.08447916
-0.042530958 0.2967786 0.07899192 0.061824016 -0.03736948 0.22619694 0.06702165 -0.061848033
-0.028714908 0.13359141 -0.09272587 -0.050692093 0.009246652 0.074963726 0.0732026 0.119481064
-0.05429188 0.05733087 0.11151893 -0.16272403 -0.18155526 -0.07503358 -0.011147979 0.11659887
0.061162766 0.08010817 0.040089853 0.09835961 0.051137604 0.07785277 0.026294326 -0.052845024
-0.015647857 0.0040936624 -0.10814046 -0.0033043923 -0.031095136 0.018310754 0.18859188 0.049640145
0.043117262 -0.06808586 0.051839616 0.050536774 -0.094453074 0.005546453 -0.07567454 -0.13455436
0.015489995 0.06704829 0.02844207 0.020563373 -0.051899984 0.0087335445 0.09638025 -0.17823905
00000000: 44e0 213c 29e0 b5bc 30fe ebbd aac8 c2bd
00000010: 89e5 06be a3f6 cc3b d6ec 153d fae6 27be
00000020: 0045 f9bd 67cc 92bc add0 b4bb 853e b73d
00000030: f3e8 c6bd 377c 1bbe bb59 733d 50fb f6bc
00000040: f745 efbc c57a 7b3d bd5f 6fba d091 a5bd
00000050: 94a6 243c 9740 38bd 834a 463d bfab 083d
00000060: 7cce 99bd 9d85 05be dd37 033d 95e8 2c3d
00000070: 2baa 1ebe 62a9 363d 1f1e e5bc 6aa5 dcbd
00000080: cd39 ea3d 0a3b 45bd 0f3f c73d 5d1f aebd
00000090: f5ab 4e3d cd1d d53c 8173 c9bd 948d 15bc
000000a0: f456 8fbd 1391 0bbd 9044 39bd aa99 adbd
000000b0: 8761 bdbd 7140 243d 168c ecbd f479 003d
000000c0: 15b2 bebd f6f0 7bbe 9815 53be 90eb 5bbd
000000d0: 5698 b3bd 1bd4 243d 0c87 70bc 6348 49bb
000000e0: 557a 943d 96c9 ddbd 90d3 a8bd 9f68 583c
000000f0: d0ce 383c 673a 1fbc 428b b33d 9920 b2bd
00000100: d277 a1bd 4e12 e839 f5ee 123d f933 3c3e
00000110: 4951 3c3e 50fd 50bd 8e90 3ebd 73d2 77bd
00000120: f8d1 c03c c612 53ba e04a e2bc 977b 6d3c
00000130: 6875 babd a8c0 8dbd 8a65 653d d136 103c
00000140: bee9 23bc e8d2 a1bc 49c3 903c 81b7 fd3d
00000150: 8d89 1bbe c0f0 44be facd a9bd 08f5 e1bc
00000160: 45c7 7cbd c4ca 253c 7a90 1ebe 21e2 bcbc
00000170: cf13 efbd 888a 183c 4fb9 79bb f2d4 e93d
00000180: 5be8 663d 66ab 47bc 68a8 4d3c ade9 4c3d
00000190: b9e2 103d 8770 c9bc 00a4 0d3d 6c0f 9f3c
000001a0: a449 20bd 3915 a33d d710 9ebb 0a01 61bc
000001b0: 53b5 41bd 78fc 0cbe 5980 773c 7cd5 433c
000001c0: 1649 f43d 32ed 613e b5c3 88bd 0131 dabc
000001d0: 0084 45bd 9c7c 4abd cf7f 10bd 6724 283e
000001e0: 77e1 ff3b d980 9dbd e0e8 0cbc 962e 40bd
000001f0: 0365 37bd bb56 8d3d 48a8 0d3d bd5c c7bd
00000200: 769c b6bc 3425 e0bc f8e8 c83c 9224 c83d
00000210: a5d4 1b3d 1d55 2cbe 2dda 333d 7348 6abd
00000220: 3d3f 00be ff6e 8cbd eb83 183e e496 243e
00000230: c2d0 e93d e383 f8bc 16bc 3bbe 1d72 03be
00000240: c348 24bc fd3b 0dbe 4eab 0f3d 1147 a23b
00000250: 70a8 8abd 1d84 e13c a3ca 993c 35b1 d4bd
00000260: 563f 99bc 9539 64bd d5e3 69bd 3ab3 d7bd
00000270: a9bb cd3d 0dff 1e3e 91b6 e4bc 7d83 7a3c
00000280: 9606 0d3e f7a1 5e3d f6d3 61bd 4e16 aabd
00000290: 6acd b5bc 2218 02bd b0d1 6c3c 130b 433d
000002a0: d597 163d 1bd9 56bd 89e5 54bd d91e b7bc
000002b0: 7d5f f4bd 5447 52bb 75cf 2ebd a6bb 7dbd
000002c0: b5bb 6d3b c3e2 a0bc 410d 123e 8f1e 833d
000002d0: 066f 1b3c 598e 503d b6f8 b03c d732 15bc
000002e0: a503 0ebc 3c4b 4f3d 3f2c 94bd b95a 23bd
000002f0: c1ad 8f3d 2722 f0bc 5762 4abd 1645 113d
00000300: d99b 83bd 21fc f7bc da8d 143d 1b05 63bd
00000310: e536 65bd 7544 d23a 8c88 87bd 6903 adbd
00000320: f134 2ebd 5df3 973e 84c6 a13d 2e3b 7d3d
00000330: bd10 19bd 2ca0 673e a642 893d 5d54 7dbd
00000340: 873b ebbc 30cc 083e 10e7 bdbd 83a2 4fbd
00000350: 457f 173c 9586 993d 3feb 953d 7db2 f43d
00000360: 2a61 5ebd c6d3 6a3d 0964 e43d 21a1 26be
00000370: 9fe9 39be 35ab 99bd 03a6 36bc 63cb ee3d
00000380: cf85 7a3d c10f a43d 4235 243d c370 c93d
00000390: aa75 513d 4671 9f3d 3367 d73c 0674 58bd
000003a0: ef2f 80bc 2124 863b bf78 ddbd 818e 58bb
000003b0: 3abb febc 6f00 963c 3b1e 413e 7753 4b3d
000003c0: ba9b 303d 9970 8bbd c755 543d a6ff 4e3d
000003d0: 9d70 c1bd 05bf b53b 41fb 9abd 9ec8 09be
000003e0: bfc9 7d3c 9d50 893d 58ff e83c 8574 a83c
000003f0: 1495 54bd 2417 0f3c 0263 c53d 4c84 36be
