CSC-IVF/Train_result/LISTA_Base_Train.model (torch_old, 62109 bytes, 56 tensors)

convLayer0.conv.conv_decoder.de_conv0.conv2d.weight f4 [1, 64, 3, 3]
0	0xbcc43a4b	-0.023953578
1	0xbcc5900b	-0.024116537
2	0xbcf34ecb	-0.029700657
3	0x3c594590	0.013261214
4	0xbb460330	-0.0030214302
5	0xbd126c30	-0.035747707
6	0xbd099b0e	-0.033595137
7	0x3cd52462	0.026018325
8	0x3c9e2a4a	0.019307274
9	0x3d0c0fa9	0.034194622
10	0x3b9d8040	0.0048065484
11	0x3be09e08	0.0068547763
12	0x3a9f9b60	0.0012177043
13	0x3ce64ace	0.028111842
14	0x3c99766e	0.01873323
15	0xbb99bc58	-0.004691642
16	0x3ca38ba0	0.01996404
17	0xbc844598	-0.016146466
18	0xbb99f920	-0.0046988875
19	0xbca294fb	-0.01984643
20	0xbd23fc98	-0.040035814
21	0xbce85928	-0.028362826
22	0xbd171aeb	-0.036890905
23	0x3d09c7c9	0.033637796
24	0x3d12671d	0.035742868
25	0xbc1c8570	-0.009553298
26	0xbca568db	-0.0201916
27	0x3cfa1b02	0.030530456
28	0x3c34be20	0.011031657
29	0xbc984350	-0.018586785
30	0x3c7a42f0	0.015274748
31	0x3d0b27a1	0.03397334
32	0x3cdbee96	0.026847165
33	0x3c649c6c	0.0139533095
34	0xbd1006ef	-0.035162862
35	0xbcbfa4f0	-0.023394078
36	0xbd2a9dd3	-0.04165442
37	0x3beb9540	0.007189423
38	0x3c20acf4	0.00980686
39	0x3ccd6fc6	0.025077712
40	0xbd0bcff3	-0.034133863
41	0xbc5eeb96	-0.013605973
42	0x3cf0371e	0.029323157
43	0xbd2586a4	-0.040411606
44	0x3c929fee	0.017898526
45	0x3d01f5f5	0.031728704
46	0x3cb04c9a	0.021520901
47	0xbd0d265e	-0.034460418
48	0x3d1e73c9	0.03868464
49	0x3c08d120	0.008350641
50	0xbb6d51d0	-0.0036212094
51	0xbd1024c4	-0.035191312
52	0xbc912923	-0.01771981
53	0x3c82c4da	0.015963007
54	0xbc0e24c4	-0.008675758
55	0x3ae57ca0	0.0017508455
56	0x3c920388	0.01782395
57	0x3ca5498a	0.020176668
58	0xbc959f7b	-0.018264523
59	0x3c4a734c	0.0123565905
60	0xbc0fd5c4	-0.008778993
61	0xbaa3c720	-0.0012495257
62	0xbc412726	-0.011789119
63	0xbcfb410b	-0.030670663
64	0x3ba4ad28	0.0050255246
65	0xbc440526	-0.011964118
66	0x3d17f0d1	0.037094895
67	0xbce12a73	-0.027486062
68	0x3bf3c8e0	0.0074397177
69	0x3d153d0d	0.036435176
70	0x3c21cb3c	0.009875115
71	0xbbf29200	-0.0074026585
72	0x3c19179c	0.009344008
73	0x3c6f5f54	0.01461013
74	0x3cd46c3a	0.025930513
75	0xbcd00dc8	-0.025397196
76	0x3d2aa3cb	0.04166011
77	0xbc7d6f8c	-0.015468489
78	0xbc41eb0c	-0.011835825
79	0xbcfa8123	-0.030579155
80	0xbd1bdf46	-0.038054727
81	0xbbec3ed8	-0.00720964
82	0xbc23eed0	-0.010005668
83	0x3b67ab90	0.0035350062
84	0xbce41d6b	-0.027846059
85	0x3cbe1e3a	0.023207773
86	0x3bb403c0	0.005493611
87	0xbac79380	-0.0015226454
88	0x3ce00d32	0.027350042
89	0xba7a61c0	-0.0009551309
90	0xbd010cfc	-0.031506523
91	0x3ceb7436	0.028741937
92	0xbb4abdb0	-0.0030935816
93	0x3c52aab4	0.012858082
94	0xbcbf4cc8	-0.023352042
95	0x3d249e23	0.040189873
96	0x3d2264c5	0.039646883
97	0x3d0c878d	0.03430896
98	0x3ccc9382	0.024972681
99	0xbb9b31c0	-0.0047361553
100	0x3d1decc5	0.03855588
101	0x3c09c854	0.008409578
102	0x3b2adf00	0.002607286
103	0xbcc148c8	-0.023594275
104	0xbd169474	-0.03676267
105	0x3c394bc0	0.011309564
106	0x3ca2d7d2	0.019878302
107	0xbd14a560	-0.036290526
108	0xbc6bc6a6	-0.014390623
109	0xbbf9d898	-0.007624697
110	0x3a4e9c40	0.00078815594
111	0x3d29500b	0.0413361
112	0xbd1f7b72	-0.038936086
113	0xbce5e1e0	-0.028061807
114	0xbc49fdc6	-0.012328571
115	0xbcb3d980	-0.021954298
116	0xbcb28f03	-0.021796709
117	0x3ce3600a	0.027755756
118	0x3cabf99a	0.020993043
119	0x3cee3e22	0.029082362
120	0xbc5d598c	-0.013510119
121	0x3cfe81b6	0.03106771
122	0xbd185b32	-0.037196346
123	0xbd09f4f6	-0.03368088
124	0xbb33ea90	-0.0027453043
125	0xbc5766bc	-0.013147052
126	0xbd125457	-0.035724964
127	0xbd202917	-0.039101686
128	0x3cacfaf2	0.021115754
129	0xbc7494b6	-0.014928034
130	0x3c4a5b04	0.012350801
131	0xbbc924a0	-0.0061383992
132	0x3cb1cf56	0.02170531
133	0xbcbd30b6	-0.023094516
134	0xbd26b490	-0.04069954
135	0xbcbda900	-0.023151875
136	0x3d050951	0.032479588
137	0x3d211d09	0.03933433
138	0xbc754ef6	-0.014972439
139	0x3cd0832a	0.025453169
140	0xbca58360	-0.020204246
141	0xbd043408	-0.032276183
142	0x3b4e3e70	0.003147032
143	0xbc5236d6	-0.012830457
144	0x3ae8a1a0	0.0017748363
145	0x3c4ba3b4	0.012429167
146	0x3d0b1189	0.03395227
147	0x3c8951d6	0.016762655
148	0xbd20bd7b	-0.039243203
149	0xbcc04e56	-0.023474853
150	0x3d036c7d	0.032085884
151	0x3d2593f5	0.040424306
152	0xbcc2ff40	-0.023803353
153	0x3d00fe33	0.031492423
154	0xbacf6fe0	-0.0015826188
155	0xbb50ad00	-0.0031841397
156	0xbd275f02	-0.04086209
157	0x3ce652ca	0.028115649
158	0xbc7e94e6	-0.01553843
159	0x3d0047f9	0.03131864
160	0x3785a800	1.5933067e-05
161	0x3d256f23	0.04038919
162	0x3c4868c0	0.012232006
163	0xbd18965f	-0.03725278
164	0xbc685fd6	-0.014183005
165	0x3c367d64	0.011138294
166	0x3d2a1caf	0.04153126
167	0xbcd84ed3	-0.026404774
168	0xbcbed110	-0.023293048
169	0x3d22fa35	0.039789397
170	0x3ce16dee	0.027518239
171	0x3d0f0c11	0.034923617
172	0xbcc061a3	-0.023484057
173	0xbc139a4c	-0.009008955
174	0xbccd9716	-0.025096457
175	0x3c401000	0.011722565
176	0xbd12b638	-0.03581831
177	0xbc9e60c8	-0.019333258
178	0xbd0e8377	-0.034793343
179	0x3ca8dbc8	0.020612612
180	0xbca87108	-0.02056171
181	0x3d1acc6d	0.037792612
182	0x3c00ad2c	0.007853787
183	0xbc3efc7c	-0.011656877
184	0xbd1eebdf	-0.038799163
185	0xbc137330	-0.008999631
186	0x3c50d1c4	0.0127453245
187	0x3ba58b40	0.0050520003
188	0xbd1c5a8f	-0.0381723
189	0xbc732380	-0.014840007
190	0x3d0bb2b5	0.034105975
191	0xbbcc2040	-0.0062294304
192	0x3cf53ade	0.029935297
193	0x3c83c816	0.01608662
194	0xbac520a0	-0.001503963
195	0x3d173867	0.036919024
196	0x3d0526eb	0.03250782
197	0x3d09cde9	0.033643637
198	0xba9b8ba0	-0.0011867173
199	0x3bf73718	0.0075444095
200	0xbc0d1054	-0.00860985
201	0x3c86ee2a	0.016470987
202	0x3cfee18a	0.031113405
203	0x3c91e098	0.01780729
204	0x3d0f8b91	0.03504521
205	0xbc8b73f3	-0.017023062
206	0xbb8c43d8	-0.0042805485
207	0x3c32e12c	0.010917943
208	0x3b1dac00	0.0024058819
209	0x3d21fe2d	0.03954904
210	0x3a6e4dc0	0.0009090565
211	0x3d02c6d1	0.031927887
212	0x3c987172	0.018608782
213	0x3d14e585	0.0363517
214	0xbb94d8c8	-0.004542444
215	0xbd1516ff	-0.036398884
216	0xbbdc4ee8	-0.0067232735
217	0x3bdf9d40	0.0068241656
218	0x3c82e0b6	0.015976291
219	0x3c99a542	0.018755559
220	0xbbe98440	-0.007126361
221	0xbb961938	-0.004580643
222	0x3ceb35be	0.02871215
223	0xbca16586	-0.01970173
224	0x3d20ee81	0.039289955
225	0xbc85b088	-0.016319528
226	0x3c8d350e	0.017237213
227	0xbd0498d7	-0.032372322
228	0xbd1db3d4	-0.038501576
229	0xbbb98840	-0.005661994
230	0xbd2599f2	-0.040430017
231	0x3bd57fd8	0.0065154843
232	0x3cebfbf2	0.02880666
233	0xbce83f28	-0.028350428
234	0x3cc804ea	0.024416406
235	0x3c829b98	0.015943334
236	0xbca0bec0	-0.019622207
237	0x3c1864ac	0.009301346
238	0x3d2a176f	0.041526254
239	0xb788c800	-1.6305596e-05
240	0x3d0892ed	0.033343244
241	0x3c569374	0.013096679
242	0x3cb1a04a	0.021682877
243	0x3cd15b0a	0.025556106
244	0x3c79a074	0.015236009
245	0xbc193d8c	-0.009353053
246	0xbcf55c4e	-0.02995124
247	0xbc19c5f0	-0.009385571
248	0x3cec26d6	0.028827112
249	0x3ca07b9a	0.019590188
250	0xbd21b394	-0.0394779
251	0x3c07ffa0	0.008300692
252	0xbbafd188	-0.0053655542
253	0x3cb440aa	0.02200349
254	0x3c577a84	0.013151769
255	0xbd15950b	-0.03651909

convLayer0.conv.conv_encoder.en_conv0.conv2d.weight f4 [64, 1, 3, 3]
0	0x3e93febe	0.2890529
1	0x3ea32f96	0.31872243
2	0x3e692b61	0.22770454
3	0xbe35427a	-0.1770114
4	0x3d4dceba	0.050245978
5	0x3ca8e748	0.020618096
6	0xbe45bb7a	-0.19309798
7	0x3c09a3f9	0.0084009105
8	0xbd6ea99b	-0.058267217
9	0x3eb4a7d7	0.35284302
10	0x3e0d1d17	0.13780628
11	0x3e4acb8a	0.19804206
12	0x3cdd827e	0.027039763
13	0xbdb0ba99	-0.08629341
14	0x3e7f82e9	0.24952282
15	0x3e994fad	0.299436
16	0x3da3bc93	0.07994952
17	0xbe5f27c6	-0.21792516
18	0x3e96f40d	0.2948307
19	0x3f0fa963	0.5611784
20	0x3e639593	0.22225027
21	0xbdd3bd6e	-0.10338865
22	0x3e1bb15a	0.15204373
23	0x3d80d920	0.06291413
24	0x3e197318	0.14985311
25	0xbd0bba48	-0.0341132
26	0x3d46819c	0.04846345
27	0xbc5a4edc	-0.013324466
28	0xbe4d9dd4	-0.20079738
29	0xbe453c46	-0.19261274
30	0x3e2fed74	0.17180425
31	0x3dc4ab7d	0.09603021
32	0x3eb33dc8	0.35008073
33	0x3db00b4e	0.08595906
34	0x3eca4acd	0.39510193
35	0x3e9c6d81	0.30552295
36	0x3eafb3f9	0.34316996
37	0xbd505163	-0.050858866
38	0xbbf61b76	-0.007510598
39	0xbe370cf6	-0.17876038
40	0x3e31aaff	0.17350386
41	0x3cb90465	0.022585103
42	0x3e2fcf17	0.17168842
43	0x3d89658f	0.06708824
44	0x3e8dbaa1	0.2768145
45	0x3de259a2	0.11052252
46	0x3dbcba5a	0.09215231
47	0x3c174079	0.00923168
48	0xbea5f291	-0.32411626
49	0x3e8051ac	0.2506231
50	0xbecc2584	-0.39872372
51	0x3b696612	0.0035613817
52	0xbea657b5	-0.3248879
53	0xbee0220a	-0.4377597
54	0xbd9b3a9c	-0.07579538
55	0x3e188fe5	0.14898641
56	0x3ed7e3b2	0.42165905
57	0x3e530042	0.20605567
58	0xbcfeebb4	-0.031118251
59	0xbd4f38c6	-0.050591253
60	0x3e6dfc9e	0.23240897
61	0x3e093b79	0.13401593
62	0xbc9cfa18	-0.019162223
63	0xb96ce44b	-0.0002259176
64	0xbd7b50c1	-0.06135631
65	0x3e78cfcb	0.24298017
66	0x3d3f623d	0.046724547
67	0x3eb8cede	0.36095327
68	0xbd05dfe6	-0.03268423
69	0x3dd4a001	0.10382081
70	0x3eadfdad	0.33982602
71	0x3e178730	0.14797664
72	0x3d25685f	0.04038274
73	0x3e04d844	0.12973124
74	0x3e89cd51	0.26914456
75	0xbca334d9	-0.01992266
76	0xbe6a9240	-0.22907352
77	0x3d521297	0.05128726
78	0x3d030ac2	0.03199268
79	0xbbcd3646	-0.0062625734
80	0x3eca4348	0.39504457
81	0xbe6fb1a2	-0.23407605
82	0xbe061685	-0.13094528
83	0x3d74cdc1	0.059766535
84	0x3e26c6cb	0.16286771
85	0xbe9de072	-0.308353
86	0xbd04236f	-0.032260355
87	0x3e45fd13	0.19334821
88	0x3d127c90	0.035763323
89	0xbe85186a	-0.2599519
90	0x3d6db9c0	0.058038473
91	0xbe6a3d5b	-0.22874968
92	0x3e8f4f8c	0.27990377
93	0xbe91dcdf	-0.28488824
94	0x3eb2ceb4	0.34923327
95	0xbe3c40d8	-0.18384111
96	0x3e81a847	0.25323698
97	0x3eb6b262	0.3568297
98	0xbe222fa2	-0.15838483
99	0x3dcf02b3	0.10107937
100	0x3de66774	0.11250201
101	0x3cb82a04	0.022480972
102	0xbd6d2cac	-0.05790393
103	0x3e937906	0.2880327
104	0x3ea83ed0	0.32860422
105	0xbdc9c66b	-0.09852298
106	0xbe7feba1	-0.24992229
107	0x3d1281ab	0.035768192
108	0xbec9209b	-0.39282688
109	0x3c910645	0.017703185
110	0xbec5579b	-0.385434
111	0xbef3302c	-0.4749769
112	0xbe9a4c1f	-0.301362
113	0x3ee18ec6	0.4405424
114	0x3ddf1b34	0.108938605
115	0xbe94239f	-0.28933427
116	0xbe16ec0d	-0.14738484
117	0x3de9a122	0.11407687
118	0xbe1e0bc3	-0.15434174
119	0xbee5fb01	-0.44918063
120	0xbe188538	-0.14894569
121	0xbd53566f	-0.0515961
122	0xbe33337f	-0.17500113
123	0xbe8418b8	-0.2580011
124	0x3c29daf7	0.010367147
125	0xbe0f3e96	-0.13988718
126	0xbe835cec	-0.2565683
127	0xbd8d5ec8	-0.06902844
128	0x3ec628ff	0.38703153
129	0x3dd9cb8a	0.10634525
130	0x3e46681e	0.19375655
131	0xbdd418a9	-0.10356266
132	0x3da543f2	0.080696
133	0x3ebabb29	0.36470917
134	0xbe11a1c4	-0.14221865
135	0xbe4dbf97	-0.20092617
136	0x3db41237	0.08792537
137	0x3dcb13f2	0.09915914
138	0x3e88da04	0.26728833
139	0x3ee8a093	0.45435008
140	0xbdaa6231	-0.0831951
141	0x3b6a37ee	0.0035738903
142	0xbe4c54a3	-0.19954161
143	0xbe990abb	-0.29891
144	0x3e58cbf6	0.21171555
145	0xbe854a7b	-0.26033387
146	0x3e1dca97	0.15409313
147	0xbe4b5f86	-0.19860658
148	0xbea2b0e8	-0.31775594
149	0xbec7e153	-0.39039096
150	0xbeb6bed9	-0.3569248
151	0xbbe3610e	-0.00693906
152	0xbe97132d	-0.29506817
153	0x3db3782d	0.08763156
154	0x3c9d66c7	0.019214047
155	0x3eb2df8d	0.3493618
156	0x3e84eaa6	0.25960273
157	0xbe284bd6	-0.16435179
158	0x3e811aba	0.25215703
159	0xbe22d9db	-0.15903418
160	0x3d553e37	0.052061286
161	0xbe9636cd	-0.29338685
162	0xbe4e5454	-0.20149356
163	0x3d2936ef	0.041312154
164	0xbd886378	-0.06659597
165	0x3eac01de	0.33595175
166	0x3e31e27a	0.1737155
167	0xbd1ec990	-0.038766444
168	0xbc8f745a	-0.017511535
169	0x3e8665cb	0.26249537
170	0x3e863099	0.26208952
171	0x3e740193	0.23828726
172	0xbebc651f	-0.367959
173	0xbdfd2280	-0.12360096
174	0xbd838e64	-0.06423643
175	0x3eab203d	0.33423033
176	0xbedf358d	-0.43595544
177	0xbd9394fb	-0.0720615
178	0xbe59b1fe	-0.21259305
179	0x3e17c242	0.14820197
180	0x3df2e1ca	0.11859472
181	0x3e8508f9	0.25983408
182	0x3ce83663	0.028346246
183	0x3e77a630	0.24184489
184	0x3dcfe6e9	0.101514645
185	0x3e8d4fb6	0.27599877
186	0xbea2efbc	-0.31823528
187	0xbe80ae1b	-0.25132832
188	0x3e436b54	0.19083911
189	0xbecd353a	-0.4007967
190	0xbe174a53	-0.14774446
191	0xbd55a98d	-0.05216365
192	0xbdb50781	-0.08839322
193	0xbeab4b11	-0.3345571
194	0x3e6a656f	0.22890256
195	0xbb51dbd0	-0.0032021888
196	0xbea3552c	-0.31900918
197	0x3e142f0a	0.14471069
198	0x3e863e24	0.26219285
199	0xbe8b31cc	-0.2718643
200	0xbea656c0	-0.3248806
201	0x3e1eb2c5	0.15497883
202	0x3d60b58c	0.054860637
203	0x3e6d8b23	0.23197608
204	0xbe03d806	-0.12875375
205	0xbea937fd	-0.33050528
206	0xbecdd1df	-0.4019918
207	0xbe11187f	-0.14169501
208	0x3cc3e4e0	0.023912847
209	0x3e0a1dce	0.13487932
210	0xbe1b6529	-0.15175308
211	0x3eba2d72	0.36362797
212	0xbe0f64b2	-0.14003256
213	0x3d1c5681	0.038168434
214	0x3c989d7b	0.01862978
215	0x3e695f27	0.22790204
216	0x3e3489bc	0.17630666
217	0xbdc5db13	-0.09660926
218	0x3c8cf111	0.017204793
219	0x3e7f374a	0.24923435
220	0x3d4916a1	0.049093846
221	0xbd059b57	-0.032618847
222	0x3df12874	0.11775294
223	0xbc82f50e	-0.015985992
224	0x3de82e58	0.11336964
225	0xbe9b4bd4	-0.3033129
226	0xbee8c64b	-0.45463786
227	0x3db18483	0.08667853
228	0xbe937de1	-0.28806975
229	0xbe8b84eb	-0.27249846
230	0xbe2fe37c	-0.17176622
231	0xbe687713	-0.22701673
232	0x3dedd912	0.116136685
233	0xbcf3d1bf	-0.0297631
234	0xbe1d1a85	-0.15342148
235	0x3e68ccd3	0.22734384
236	0xbd19e4b3	-0.03757162
237	0xbe086733	-0.13320617
238	0x3eaaea7b	0.3338202
239	0x3e7dfa32	0.24802473
240	0x3abb7f60	0.0014304928
241	0x3edd9fc5	0.43285957
242	0x3dd531fc	0.104099244
243	0x3cc978bb	0.024593702
244	0xbe2a240e	-0.16615316
245	0x3ed53443	0.41641435
246	0x3e7e54d6	0.2483705
247	0x3e186a64	0.14884335
248	0xbe6761c3	-0.22595887
249	0x3d9b01ec	0.07568726
250	0xbddb98d4	-0.10722509
251	0x3e3d0400	0.18458557
252	0xbee1d396	-0.4410674
253	0xbe8dd843	-0.27704057
254	0xbd9d048d	-0.076668836
255	0xbd939ca4	-0.07207611

convLayer0.norm.weight f4 [64]
0	0x3f7e2b6b	0.99285
1	0x3f6b8136	0.91994035
2	0x3f8497b0	1.0358791
3	0x3f798711	0.9747172
4	0x3f766e5e	0.96262157
5	0x3f7768ad	0.966441
6	0x3f83b380	1.0289154
7	0x3f854141	1.0410539
8	0x3f6e7b28	0.9315667
9	0x3f746767	0.9547028
10	0x3f75b735	0.95982677
11	0x3f86ff9a	1.0546753
12	0x3f7c05ed	0.9844654
13	0x3f877d86	1.0585182
14	0x3f6bd335	0.9211915
15	0x3f8484cc	1.0353026
16	0x3f71341d	0.94220144
17	0x3f86a666	1.0519531
18	0x3f73755d	0.9510096
19	0x3f6cba16	0.92471445
20	0x3f748de8	0.9552903
21	0x3f84c83b	1.0373605
22	0x3f9a6398	1.2061644
23	0x3f6cad0c	0.9245155
24	0x3f855ee2	1.0419581
25	0x3f7211b3	0.94558257
26	0x3f84f810	1.0388203
27	0x3f830511	1.0235921
28	0x3f775ba1	0.9662419
29	0x3f75be92	0.9599391
30	0x3f84fe61	1.039013
31	0x3f68d761	0.9095364
32	0x3f8692e6	1.051358
33	0x3f6f6f04	0.9352877
34	0x3f7af27e	0.98026264
35	0x3f896460	1.0733757
36	0x3f81a1ef	1.0127543
37	0x3f85c807	1.0451669
38	0x3f73ca82	0.9523088
39	0x3f70599a	0.9388672
40	0x3f882538	1.0636358
41	0x3f823f29	1.0175525
42	0x3f75833a	0.9590336
43	0x3f6d733a	0.92753947
44	0x3f747709	0.95494133
45	0x3f6bda26	0.92129743
46	0x3f825ff7	1.0185536
47	0x3f78a914	0.9713299
48	0x3f85ff50	1.046854
49	0x3f80f05f	1.0073355
50	0x3f6fef1f	0.93724245
51	0x3f687869	0.9080873
52	0x3f71bb02	0.94425976
53	0x3f83a035	1.0283266
54	0x3f863870	1.0485973
55	0x3f82111c	1.0161471
56	0x3f76aae5	0.96354514
57	0x3f88e1c2	1.0693896
58	0x3f6f60e4	0.9350722
59	0x3f83a38c	1.0284286
60	0x3f896bba	1.0736
61	0x3f72bc8b	0.94818944
62	0x3f8496a4	1.0358472
63	0x3f89708e	1.0737474

convLayer0.norm.bias f4 [64]
0	0xbdba1635	-0.09086267
1	0xbd7e9384	-0.0621524
2	0xbc87b074	-0.016563632
3	0x3e2ed63b	0.1707391
4	0x3d596581	0.053075317
5	0x3c8812a9	0.01661046
6	0x3ca3ec44	0.020010121
7	0x3e388f6d	0.18023463
8	0xbd0533eb	-0.032520216
9	0xbc072a62	-0.008249851
10	0x3cf756eb	0.030192813
11	0x3d802885	0.062577285
12	0x3ca3b189	0.019982116
13	0x3d580ee7	0.052748587
14	0x3d1b478e	0.037910037
15	0x397a2b32	0.0002385795
16	0x3da3a383	0.07990172
17	0x3d862fcb	0.065520845
18	0xbd269499	-0.040669058
19	0x3dab1cc2	0.083550945
20	0xbd022e6a	-0.031782545
21	0xbc453491	-0.012036459
22	0x3cdc379d	0.026881987
23	0x3e8e0c2b	0.27743658
24	0x3d85c2e9	0.06531317
25	0x3d8cdc0b	0.06877907
26	0x3c96c884	0.01840616
27	0x3ea0da8b	0.31416735
28	0x3db2923a	0.08719297
29	0x3d03b9ab	0.03215949
30	0x3d204702	0.03913022
31	0x3e04d351	0.12971236
32	0x3e8f7032	0.28015286
33	0x3c40c4c3	0.011765662
34	0x3d9a31d2	0.07529034
35	0x3e15afaf	0.14617799
36	0x3dabd4f6	0.083902285
37	0x3e7a5703	0.24447255
38	0xbd67d001	-0.056594852
39	0x3ca1b85c	0.01974123
40	0x3d58335a	0.052783348
41	0x3eb5ac75	0.35483137
42	0x3dbd1a0a	0.09233482
43	0x3c55cd8b	0.013049494
44	0xbc639fb0	-0.013893053
45	0xbcb08de4	-0.021552034
46	0xbd94ddc0	-0.07268858
47	0x3d6f98b2	0.05849523
48	0x3d88f963	0.06688192
49	0x3d0f0d4f	0.0349248
50	0xbddc158b	-0.107462965
51	0xbd143226	-0.036180638
52	0xbc36c3cc	-0.01115508
53	0xbcdb3e07	-0.026762975
54	0x3d9350db	0.07193156
55	0x3d8c3314	0.0684568
56	0x3cf7e050	0.030258328
57	0x3e1c4996	0.15262446
58	0x3e254717	0.161404
59	0x3d9f99ea	0.07793029
60	0x3da714f9	0.08158297
61	0x3d8e7405	0.06955723
62	0x3d185544	0.03719069
63	0xbe0dc188	-0.13843358

convLayer0.norm.running_mean f4 [64]
0	0x3e874f54	0.2642771
1	0x3f1138b7	0.56727165
2	0x3f3d4b57	0.73943084
3	0x3f0bd3a2	0.546198
4	0x3ee4f948	0.44721437
5	0xbf0e90fc	-0.5568998
6	0x3f074fb5	0.52856
7	0x3f209b02	0.62736523
8	0x3eb9350f	0.36173293
9	0xbe8f5d7b	-0.28001007
10	0x3e7732e7	0.24140511
11	0x3e8679c7	0.26264784
12	0xbf46d8a7	-0.77674335
13	0xbf2ef7ec	-0.6834705
14	0x3e9d0c1c	0.306733
15	0x3d939c69	0.07207567
16	0xbf4c5c68	-0.798285
17	0x3e608363	0.2192512
18	0x3ed271a0	0.41102314
19	0xbe9b4472	-0.30325657
20	0x3eb48991	0.35261205
21	0xbf07d161	-0.5305386
22	0xbed32c28	-0.41244626
23	0x3e5154d2	0.20442513
24	0x3ea18b7f	0.3155174
25	0xbf57a560	-0.8423672
26	0x3f0f432e	0.55961883
27	0x3ea78d85	0.32725158
28	0xbf4aa59d	-0.79158956
29	0xbf161aa2	-0.5863439
30	0xbf3b9d1e	-0.73286617
31	0x3f183a49	0.59463936
32	0x3f7fde74	0.9994881
33	0xbe4f23f2	-0.20228556
34	0xbf092edf	-0.53587145
35	0x3e8173e5	0.25283733
36	0xbf00fc30	-0.5038481
37	0x3f6d0e51	0.9259997
38	0x3e84998a	0.2589839
39	0xbeccb015	-0.3997809
40	0xbf3b4e1b	-0.73166054
41	0x3f53fd73	0.8280861
42	0x3f444eea	0.76682913
43	0xbe8159b1	-0.25263742
44	0x3eb813d8	0.3595264
45	0x3eb205df	0.34770104
46	0x3f166757	0.58751434
47	0xbea38c23	-0.31942853
48	0xbeddc108	-0.43311334
49	0xbf497e06	-0.7870792
50	0x3e6f5e3c	0.23375791
51	0x3f727f21	0.94725233
52	0xbf3ab89c	-0.7293794
53	0xbec445df	-0.38334557
54	0xbf35e65f	-0.71054643
55	0xbea8ca73	-0.32966956
56	0xbe90baed	-0.28267613
57	0x3f0453d7	0.5169043
58	0x3f03d205	0.5149234
59	0xbeca057d	-0.39457312
60	0xbf030a4d	-0.5118759
61	0xbf1ae395	-0.6050351
62	0xbeff0eb2	-0.498159
63	0x3f3314b6	0.6995348

convLayer0.norm.running_var f4 [64]
0	0x3c16eee8	0.009212233
1	0x3d26e933	0.04074974
2	0x3d8e2e0b	0.06942376
3	0x3d175c83	0.03695346
4	0x3ccc8aca	0.024968524
5	0x3d1d840b	0.038456004
6	0x3d0fdee1	0.035124663
7	0x3d495a70	0.049158514
8	0x3c864789	0.016391532
9	0x3c22e9b6	0.009943416
10	0x3bed38df	0.0072394456
11	0x3c118212	0.008881109
12	0x3d9c025e	0.07617639
13	0x3d705482	0.058674343
14	0x3c407e4e	0.011748863
15	0x3a43486d	0.0007449452
16	0x3da2c974	0.079485804
17	0x3bcf8fc6	0.006334278
18	0x3cabe01c	0.020980887
19	0x3c3de435	0.011590053
20	0x3c832efc	0.016013615
21	0x3d12351d	0.035695184
22	0x3cad0280	0.021119356
23	0x3baaa8f7	0.0052081305
24	0x3c4c7101	0.012478114
25	0x3db7c297	0.08972662
26	0x3d202347	0.039096143
27	0x3c5cb6bc	0.013471302
28	0x3da1f61a	0.07908268
29	0x3d308725	0.043097634
30	0x3d8a2274	0.06744853
31	0x3d35b8c6	0.044365667
32	0x3e003f07	0.12524043
33	0x3bac8f89	0.005266134
34	0x3d15d98a	0.036584415
35	0x3c01de99	0.007926607
36	0x3d00913f	0.031388517
37	0x3ddced14	0.107874066
38	0x3c094dfe	0.008380411
39	0x3ca643b8	0.020295963
40	0x3d88480d	0.066543676
41	0x3db26515	0.08710686
42	0x3d97fbdb	0.074210845
43	0x3c071319	0.008244299
44	0x3c87ec98	0.016592309
45	0x3c755df6	0.014976015
46	0x3d2fcb09	0.04291824
47	0x3c4fb440	0.012677252
48	0x3cbe9ec9	0.023269074
49	0x3da2cb1e	0.07948898
50	0x3bde0cc7	0.0067764255
51	0x3de54790	0.1119529
52	0x3d896346	0.06708388
53	0x3c98e8f7	0.018665774
54	0x3d828f92	0.0637504
55	0x3c61548b	0.013753067
56	0x3c22c0d2	0.009933667
57	0x3d0ac5a8	0.033879906
58	0x3d08622d	0.033296753
59	0x3ca10c97	0.019659324
60	0x3d06a06a	0.032867827
61	0x3d3cfaef	0.046137746
62	0x3cfe6a4f	0.031056551
63	0x3d79c4f6	0.060978852

convLayer0.activation.weight f4 [64]
0	0x3e168ddd	0.14702554
1	0x3e45d5da	0.19319859
2	0x3e9e455e	0.30912298
3	0x3e8d14cc	0.2755493
4	0x3e96489a	0.29352266
5	0x3e5a5cef	0.21324514
6	0x3e427b14	0.18992263
7	0x3e64fe72	0.22362688
8	0x3e4ce09c	0.20007557
9	0x3e3ab5d7	0.18233429
10	0x3e76b799	0.24093474
11	0x3ead858f	0.3389096
12	0x3e488ea5	0.19585665
13	0x3e512bbb	0.20426838
14	0x3e888846	0.26666468
15	0x3e886b3f	0.26644322
16	0x3e8a7d34	0.27048647
17	0x3ea68f20	0.3253107
18	0x3e411f0e	0.18859503
19	0x3e8b5f55	0.2722117
20	0x3e600f7b	0.21880905
21	0x3e59fd8f	0.21288131
22	0x3da28e87	0.07937341
23	0x3eb36d99	0.35044554
24	0x3e83ea87	0.25764868
25	0x3e666143	0.2249804
26	0x3ea0e5be	0.3142528
27	0x3ea08bec	0.31356752
28	0x3e79f4a2	0.24409726
29	0x3e667811	0.22506739
30	0x3e995c8b	0.29953417
31	0x3e866224	0.2624675
32	0x3e8e99d8	0.27851748
33	0x3e25f604	0.16207129
34	0x3e90f252	0.28309876
35	0x3e9bbeb4	0.30418932
36	0x3eadde6f	0.33958766
37	0x3ea620ac	0.32446802
38	0x3e8e8e6c	0.27843034
39	0x3e391c26	0.18077144
40	0x3eabee51	0.33580258
41	0x3e82ee04	0.25572217
42	0x3e8e3b34	0.27779543
43	0x3e669d48	0.22520936
44	0x3e98863a	0.29789907
45	0x3e5e3819	0.21701087
46	0x3e9eb169	0.30994728
47	0x3e987295	0.2977492
48	0x3e9d1e45	0.30687156
49	0x3e739d00	0.2379036
50	0x3e4ca478	0.19984615
51	0x3ea404b3	0.32034835
52	0x3e5eb834	0.21749955
53	0x3e8b7809	0.27240017
54	0x3ea2db50	0.31807947
55	0x3eac48c8	0.33649278
56	0x3eaf1f8f	0.34203765
57	0x3e97e928	0.29670072
58	0x3e5db8de	0.21652552
59	0x3ea67020	0.3250742
60	0x3e639968	0.22226489
61	0x3e24f2ee	0.16108295
62	0x3e948654	0.29008734
63	0x3e84d023	0.25940046

convLayer.0.conv.conv_decoder.de_conv0.conv2d.weight f4 [1, 64, 3, 3]
0	0x3cc5cf35	0.024146656
1	0x3cebbd47	0.028776778
2	0x3cd27d73	0.025694584
3	0x3d7c9c8d	0.061672736
4	0x3dd76d70	0.105189204
5	0x3d19195e	0.037377708
6	0x3d8e1004	0.069366485
7	0x3de7fe97	0.11327856
8	0x3da2be22	0.07946421
9	0xbd350f37	-0.044203963
10	0xbde039a1	-0.10948492
11	0xbd568b60	-0.052379012
12	0xbdbae129	-0.09124977
13	0xbd706ad7	-0.05869564
14	0xbd4ab265	-0.049486537
15	0xbd337947	-0.04381683
16	0xbd7ecca0	-0.062206864
17	0xbd242b4a	-0.040080346
18	0xbdaa2089	-0.08306987
19	0xbdd1e0b2	-0.10247935
20	0xbd98ed2c	-0.07467112
21	0xbd5fae69	-0.05460969
22	0xbd8b4513	-0.06800284
23	0xbdb69634	-0.08915368
24	0xbdd50dd6	-0.104030296
25	0xbce80770	-0.028323859
26	0xbd180348	-0.037112504
27	0xbd8fda35	-0.070240416
28	0xbb9e290a	-0.0048266696
29	0xbd4d59e2	-0.050134547
30	0xbdd162f5	-0.10223953
31	0xbce7be3d	-0.028288955
32	0xbdcf0ef1	-0.10110272
33	0xbdd60427	-0.10450011
34	0xbd7910bd	-0.06080698
35	0xbd2a737e	-0.04161405
36	0xbcfeebee	-0.03111836
37	0xbd78670b	-0.060645144
38	0xbd217b9a	-0.039424516
39	0xbd1a1dda	-0.037626125
40	0xbcfcdebe	-0.03086793
41	0xbd72028b	-0.059084456
42	0xbdc3eafd	-0.09566305
43	0xbdb43cae	-0.08800636
44	0xbd62eee4	-0.055403605
45	0x3d177ec7	0.03698614
46	0x3da13d4c	0.078730196
47	0x3d23477d	0.0398631
48	0x3d2a5faf	0.041595157
49	0x3dbce2b6	0.09222929
50	0x3d2f2e8e	0.042769007
51	0x3d13d7b1	0.03609437
52	0x3d23f625	0.040029664
53	0x3db4ab11	0.08821691
54	0xbdd197d1	-0.10234035
55	0xbcf24eba	-0.029578555
56	0xbd60778b	-0.054801505
57	0xbd069a91	-0.03286225
58	0xbd8e20ec	-0.06939873
59	0xbd3b23b5	-0.04568835
60	0xbd19cced	-0.037548948
61	0xbddd05cc	-0.10792121
62	0xbdcbae13	-0.099453114
63	0xbd0cf7db	-0.03441606
64	0xbdc783df	-0.09741949
65	0xbdb2458a	-0.0870467
66	0xbd7b58e9	-0.06136409
67	0xbd2971a9	-0.04136816
68	0xbd636884	-0.055519596
69	0xbdd849e8	-0.105609715
70	0xbd0026d9	-0.031287048
71	0xbca2737c	-0.019830458
72	0x3d12c6ee	0.035834245
73	0x3c688008	0.014190681
74	0x3b25f80a	0.0025324845
75	0x3cb4a253	0.022050058
76	0x3d049e6b	0.03237764
77	0x3c4cf863	0.012510392
78	0x3dad277d	0.084547974
79	0x3d502406	0.050815605
80	0x3da16787	0.078810744
81	0x3d347c2c	0.044063732
82	0x3d5c5db0	0.053800285
83	0x3cef4e2f	0.029212086
84	0x3d90a20c	0.07062158
85	0x3c864761	0.016391458
86	0x3d8a33fe	0.06748198
87	0x3da8bf93	0.08239665
88	0x3d8fa7a1	0.070143946
89	0x3ccb813c	0.024841897
90	0xbdc1a165	-0.09454612
91	0xbd7ce1ac	-0.061738655
92	0xbced78e0	-0.028988302
93	0xbd15dbca	-0.03658656
94	0xbd81e9a3	-0.06343391
95	0xbdb2c612	-0.08729185
96	0xbd2e9757	-0.042624798
97	0xbd8c1c31	-0.068413146
98	0xbc543d94	-0.0129541345
99	0xbd5ac799	-0.053413007
100	0xbdaa5acf	-0.083181016
101	0xbdd2a18b	-0.10284718
102	0xbd74056e	-0.05957549
103	0xbd6a54b5	-0.05720969
104	0xbd1ed89c	-0.038780794
105	0xbd3b9c73	-0.0458035
106	0x391e7dce	0.0001511492
107	0xbd9aaae9	-0.0755213
108	0x3d8d7c19	0.069084354
109	0x3914c177	0.00014186451
110	0x3d02cecd	0.0319355
111	0x3dba9da0	0.09112096
112	0x3d4d9348	0.050189286
113	0x3cc7bdf7	0.024382574
114	0x3dac5219	0.084140964
115	0x3cd2fc09	0.025754945
116	0x3c9358e9	0.017986732
117	0x3d4b42ac	0.04962413
118	0x3d5cf7bf	0.053947207
119	0x3d86b600	0.065776825
120	0x3d96b369	0.073584385
121	0x3d77d857	0.060509052
122	0x3d9e7ac5	0.0773826
123	0x3d7e4886	0.062080882
124	0x3c854edb	0.016272953
125	0x3da0b73e	0.07847451
126	0xbd0b447b	-0.034000855
127	0xbdabd983	-0.083910964
128	0xbd6c2714	-0.057654455
129	0xbda569c6	-0.08076815
130	0xbda9f44f	-0.08298551
131	0xbdb90bc3	-0.090354465
132	0xbd00ae57	-0.031416263
133	0xbc931cf4	-0.017958142
134	0xbe05bed7	-0.13061081
135	0x3c8f39c0	0.017483592
136	0x3c98b902	0.018642906
137	0x3d58c659	0.052923534
138	0x3d3c3d14	0.045956686
139	0x3d92df48	0.07171494
140	0x3d0e98d5	0.03481372
141	0x3de0955c	0.10965988
142	0x3d4dae38	0.050214976
143	0x3dbb44e9	0.09144003
144	0x3d08ffa2	0.033446915
145	0x3bea1280	0.0071433187
146	0x3b2129db	0.0024591598
147	0x3d4d55ad	0.050130535
148	0x3d6b9e2b	0.057523888
149	0x3cea6045	0.028610358
150	0x3d7e1479	0.062031243
151	0x3dbb6630	0.0915035
152	0x3db08b8e	0.08620368
153	0xbdc247e9	-0.09486372
154	0xbdb09952	-0.086229935
155	0xbdd6a9db	-0.10481616
156	0xbd44087d	-0.047859658
157	0xbd7309ff	-0.059335705
158	0xbc611499	-0.013737821
159	0xbd9c86d4	-0.07642904
160	0xbd686163	-0.0567335
161	0xbd97fb46	-0.074209735
162	0xbd56e885	-0.05246784
163	0xbd1384d4	-0.036015347
164	0xbd404d5d	-0.04694878
165	0xbd3d411a	-0.046204664
166	0xbd93a6e5	-0.07209567
167	0xbd087196	-0.03331145
168	0xbd1ebb6b	-0.038752954
169	0xbde2b057	-0.110687904
170	0xbcb9ba98	-0.022671983
171	0x3d6d7ef5	0.057982404
172	0x3d9b8b25	0.07594899
173	0x3c2ccdcd	0.010547114
174	0x3ce8bba5	0.028409788
175	0x3a127d45	0.00055881246
176	0x3d71cba2	0.05903209
177	0x3d0cdc08	0.034389526
178	0x3c9ec448	0.019380704
179	0x3dae5c7e	0.08513735
180	0xbd966602	-0.07343675
181	0xbd9791ae	-0.07400833
182	0xbd8af6e0	-0.06785369
183	0xbd7a8f61	-0.061171893
184	0xbc35a231	-0.011086033
185	0xbda95a36	-0.082691595
186	0xbcbcd2e1	-0.023049774
187	0xbdc6c8ce	-0.09706269
188	0xbd8dabe7	-0.069175534
189	0x3d59cc76	0.053173505
190	0x3ccc7b1b	0.024961045
191	0x3d241309	0.040057216
192	0x3d77cde7	0.0604991
193	0x3d9030f4	0.07040587
194	0x3d6a53aa	0.057208695
195	0x3ca38949	0.019962924
196	0x3d5562ba	0.052096106
197	0x3d94a5f0	0.072582126
198	0x3c56b8ed	0.013105613
199	0x3b655651	0.0034994076
200	0x3d93483b	0.07191511
201	0x3d3a4dde	0.045484416
202	0x3d8afeca	0.067868784
203	0x3ddd0c6d	0.10793386
204	0x3db3b09c	0.0877392
205	0x3d295e79	0.04134986
206	0x3d70c55b	0.058781963
207	0xbd2d17bd	-0.042258967
208	0xbbe4b8b4	-0.006980026
209	0xbd18dc6b	-0.037319582
210	0xbd8576bc	-0.065167874
211	0xbb116f3b	-0.0022191543
212	0xbd8c1793	-0.06840434
213	0xbd8de874	-0.069291025
214	0xbd8363bf	-0.064155094
215	0xbd9f7655	-0.07786242
216	0xbd886453	-0.0665976
217	0xbdbd1beb	-0.092338406
218	0xbd92e81e	-0.07173179
219	0xbde048fe	-0.10951422
220	0xbdb0a695	-0.08625523
221	0xbd2e80d5	-0.042603333
222	0xbd5cf696	-0.0539461
223	0xbde1eb78	-0.1103124
224	0xbd8f9753	-0.07011285
225	0x3caec025	0.021331856
226	0x3d776bee	0.060405664
227	0x3c6b8c7f	0.014376759
228	0x3d7a49eb	0.06110565
229	0x3c10275f	0.008798449
230	0x3d1f355e	0.038869254
231	0x3da0949f	0.07840847
232	0x3d1bc88f	0.038033064
233	0x3da93736	0.08262484
234	0x3dd54cbc	0.104150265
235	0x3d456562	0.04819239
236	0x3d96ccac	0.07363257
237	0x3dc2edba	0.09517999
238	0x3dac20ab	0.084046684
239	0x3d92ab21	0.071615465
240	0x3d8ec6a8	0.069714844
241	0x3d2489f7	0.040170636
242	0x3d910235	0.07080499
243	0xbd1a9aea	-0.037745394
244	0xbd33b2e7	-0.043871786
245	0xbd808845	-0.06275991
246	0xbda3d696	-0.079999134
247	0xbd988cc0	-0.07448721
248	0xbd250c49	-0.04029492
249	0xbdce2ab6	-0.1006674
250	0xbda70339	-0.081549115
251	0xbdc580e3	-0.09643724
252	0x3dc88ffb	0.09793087
253	0x3d076330	0.033053577
254	0x3c89d076	0.016823035
255	0x3d92cbed	0.07167802

convLayer.0.conv.conv_encoder.en_conv0.conv2d.weight f4 [64, 1, 3, 3]
0	0x3d320e7e	0.043470852
1	0x3dc56aa2	0.09639479
2	0xbc8371d0	-0.016045481
3	0x3ec6cbc5	0.3882734
4	0x3de5215a	0.11188002
5	0x3ebf0f7d	0.37316504
6	0xbe4f05c3	-0.20217042
7	0x3e408faf	0.18804811
8	0xbe405f04	-0.18786246
9	0x3da1f11d	0.07907317
10	0xbd848b04	-0.064718276
11	0xbeb38e5d	-0.35069552
12	0xbe9c9f92	-0.30590492
13	0x3d2e35d3	0.0425318
14	0xbe0f0271	-0.13965775
15	0xbeb8480c	-0.35992467
16	0xbe1891c2	-0.14899352
17	0xbe853f12	-0.2602468
18	0xbdb0667e	-0.08613299
19	0x3c76231b	0.015023018
20	0x3e014c95	0.1262687
21	0x3be05e83	0.006847204
22	0xbd062a50	-0.032755196
23	0x3e2e6bc3	0.17033295
24	0xbe846050	-0.2585473
25	0xbd50732a	-0.05089108
26	0xbdfeec0c	-0.12447366
27	0x3d221395	0.039569456
28	0xbc85ec47	-0.016348017
29	0x3ea71cdc	0.32639205
30	0xbe9b1271	-0.30287507
31	0x3e98d3a5	0.29848972
32	0x3e84642b	0.25857672
33	0x3ddfddd2	0.10930981
34	0x3ebdff2e	0.3710875
35	0x3e5d3fc7	0.2160636
36	0xbd0f3bdb	-0.034969192
37	0xbd330b86	-0.04371216
38	0xbe34c8e0	-0.17654753
39	0xbe95492c	-0.29157388
40	0x3cda6f42	0.02666438
41	0xbe4adebe	-0.19811532
42	0xbd87ada5	-0.06624917
43	0xbde1b0ee	-0.11020075
44	0xbd90f6e6	-0.07078342
45	0xbd490dca	-0.049085416
46	0x3e683591	0.22676684
47	0xbe1976eb	-0.1498677
48	0x3ea96547	0.3308508
49	0x3e04200b	0.12902848
50	0xbe2be507	-0.16786586
51	0x3d9d9edf	0.07696318
52	0x3d9e1253	0.07718339
53	0x3e8309ee	0.25593513
54	0xbd11a7fe	-0.0355606
55	0xbec2cc87	-0.38046667
56	0xbd4f370a	-0.0505896
57	0xbd179218	-0.03700456
58	0xbdae98da	-0.08525248
59	0x3ded14a2	0.11576201
60	0xbe9e4d3b	-0.30918297
61	0xbd42cfdd	-0.047561515
62	0xbdb2fb2a	-0.08739312
63	0xbe909497	-0.28238365
64	0xbd2f5375	-0.0428042
65	0xbe9ad004	-0.30236828
66	0x3da4c8eb	0.080461346
67	0xbe800353	-0.25002536
68	0xbdb80420	-0.08985162
69	0x3e359ad4	0.17734843
70	0x3e0088aa	0.12552133
71	0xbde3f4d4	-0.11130682
72	0x3e8632c5	0.2621061
73	0xbda67fac	-0.0812982
74	0x3e73f2ba	0.23823062
75	0x3e93ff68	0.28905797
76	0xbe2109ce	-0.15726396
77	0xbced2603	-0.02894879
78	0x3e02fa64	0.12790829
79	0x3e298e54	0.165582
80	0xbe8322cf	-0.25612494
81	0xbdd7a73d	-0.10529945
82	0x3ea81487	0.3282816
83	0x3d82cf4d	0.06387196
84	0xbe85f11d	-0.26160517
85	0x3e390eb4	0.18072015
86	0x3e076355	0.13221486
87	0x3e66d873	0.22543506
88	0x3e772cfa	0.24138251
89	0x3dc3365f	0.09531855
90	0xbd7e14fe	-0.06203174
91	0x3e37de5b	0.17955916
92	0x3e39dd86	0.1815091
93	0xbdf88b89	-0.12135989
94	0xbe6528f1	-0.22378899
95	0xbeaf2f32	-0.34215695
96	0xbe2bdcec	-0.16783494
97	0xbea006d0	-0.31255198
98	0x3e6fcd86	0.23418245
99	0xbd911877	-0.070847444
100	0xbda8ae15	-0.082363285
101	0xbe654a6d	-0.22391672
102	0xbdfbb8f6	-0.12291138
103	0xbe344470	-0.17604232
104	0xbddd46b2	-0.108045
105	0xbdc97431	-0.09836615
106	0x3e57b030	0.21063304
107	0xbdd2d4a4	-0.10294464
108	0xbd181326	-0.037127636
109	0xbe90d633	-0.2828842
110	0x3e97134f	0.2950692
111	0xbe36827f	-0.17823218
112	0x3bbf0b70	0.005830221
113	0xbe88dcc5	-0.26730934
114	0x3e8feeac	0.2811178
115	0xbc28c0d1	-0.010299877
116	0xbe90ee36	-0.2830674
117	0xbdbfc759	-0.093641944
118	0x3e79171a	0.24325219
119	0x3e91f041	0.28503612
120	0xbe79469c	-0.24343342
121	0x3dcf27a7	0.10114985
122	0x3e424b0c	0.1897394
123	0xbc267c09	-0.010161408
124	0x3e975138	0.29554152
125	0x3eac90c3	0.33704194
126	0xbdf9c653	-0.121960305
127	0xbda0c53c	-0.078501195
128	0xbd2b1bc3	-0.041774523
129	0xbe9dd2ff	-0.3082504
130	0x3d7e4646	0.062078737
131	0xbecd13a2	-0.4005404
132	0xbe939118	-0.28821635
133	0x3d82b030	0.06381261
134	0x3d937451	0.0719992
135	0x3c3d5ffb	0.011558528
136	0xbe8bb546	-0.27286738
137	0xbe51e1d6	-0.20496306
138	0xbe08a275	-0.13343222
139	0x3e7f29bc	0.24918264
140	0x3da61fe4	0.081115514
141	0xbce25f3b	-0.0276333
142	0xbda5d023	-0.080963396
143	0x3d3539cb	0.04424457
144	0xbeb9e1dd	-0.36305133
145	0x3e585c4c	0.21128958
146	0xbd603fa2	-0.054748185
147	0xbe9c8e3c	-0.30577266
148	0x3d47fa17	0.04882249
149	0x3ce1281e	0.02748495
150	0xbe8efe81	-0.27928546
151	0x3e2cd336	0.16877446
152	0xbe1a3d96	-0.15062556
153	0xbc3a0740	-0.011354268
154	0xbe491677	-0.19637476
155	0x3e4c61f8	0.19959247
156	0xbdcd1b39	-0.10014958
157	0x3cd95578	0.026530012
158	0xbe3a3f34	-0.18188173
159	0x3df3ab00	0.1189785
160	0xbd84aee1	-0.06478668
161	0xbd305417	-0.043048944
162	0x3d89983d	0.0671849
163	0xbe7fec09	-0.24992384
164	0x3c3e802e	0.01162724
165	0xbe66e315	-0.22547562
166	0xbe7f363b	-0.24923031
167	0x3e9014e6	0.28140944
168	0xbe577f8d	-0.2104475
169	0xbe98b521	-0.2982569
170	0xbda5b02e	-0.08090244
171	0x3e82e250	0.25563288
172	0xbe983e51	-0.29735044
173	0xbe948cdd	-0.2901372
174	0x3e6340f9	0.22192754
175	0xbe77a05b	-0.24182265
176	0xbea79b1e	-0.32735533
177	0xbe17f868	-0.14840853
178	0x3e2c7813	0.1684268
179	0x3d80c046	0.06286673
180	0xbe0fc643	-0.14040475
181	0xbe89c1be	-0.26905626
182	0xbeb5b9cf	-0.35493323
183	0xbe3c7abc	-0.18406194
184	0xbd524de3	-0.05134381
185	0xbcdbc4b8	-0.026827201
186	0x3e8a6a3d	0.27034178
187	0xbdb8d5bf	-0.09025144
188	0xbcd65b0c	-0.026166461
189	0xbda9b038	-0.08285564
190	0xbe8e7d5c	-0.27830017
191	0x3e20a86f	0.15689252
192	0xbe3623f5	-0.17787154
193	0x3dd8f18a	0.10592945
194	0xbd852c41	-0.065025814
195	0x3d65a4f8	0.05606553
196	0xbe88d985	-0.26728454
197	0x3da3a4e5	0.079904355
198	0xbe15dc62	-0.1463485
199	0xbd997272	-0.07492532
200	0x3e198ef1	0.14995934
201	0xbea040f5	-0.31299558
202	0xbe4c9033	-0.19976883
203	0xbea52a1a	-0.32258683
204	0xbe0997af	-0.13436769
205	0x3e4804ff	0.19533156
206	0x3dd321ba	0.10309167
207	0x3de5bad1	0.11217273
208	0x3e6bde1e	0.2303395
209	0x3ebe531f	0.3717279
210	0xbe89f46e	-0.26944298
211	0x3ea66a55	0.32503
212	0xbe41a90a	-0.1891214
213	0xbe663859	-0.22482432
214	0x3dea9c88	0.11455637
215	0x3e9e5152	0.30921417
216	0x3dd1c0e2	0.102418676
217	0x3e715c7f	0.2357044
218	0xbe3feca8	-0.18742621
219	0xbe3d01ca	-0.18457714
220	0x3e4a89b7	0.19779097
221	0xbe65a82a	-0.22427431
222	0x3eaa42c0	0.3325405
223	0x3e713e79	0.23558988
224	0x3d5fcc92	0.054638453
225	0x3e2f84bc	0.17140478
226	0x3ea90616	0.33012456
227	0x3e60394f	0.21896861
228	0xbd78728a	-0.060656108
229	0x3ca226dc	0.01979392
230	0xbd153373	-0.03642602
231	0x3eac4c45	0.3365194
232	0x3c6e1db9	0.014533454
233	0x3e7f9676	0.2495974
234	0x3eb06ade	0.34456533
235	0xbd4c564b	-0.049886983
236	0x3e660a89	0.22464956
237	0x3ea72e59	0.32652548
238	0x3e9ae91b	0.3025597
239	0x3d07eb5f	0.03318345
240	0xbe46a181	-0.19397546
241	0x3e841230	0.25795126
242	0xbe0215d4	-0.1270364
243	0xbe307c7e	-0.1723499
244	0x3ed4bc1a	0.4154976
245	0x3ed98c8b	0.42490038
246	0x3ea85aa9	0.32881668
247	0x3e4ef5e4	0.20210987
248	0xbde604dc	-0.112313956
249	0x3d3038b2	0.04302282
250	0x3e4b6f2d	0.19866629
251	0x3c990028	0.018676832
252	0x3e5e1ce5	0.2169071
253	0x3b9619d1	0.0045807143
254	0x3d90fda5	0.07079629
255	0x3e4f4a48	0.2024318

convLayer.0.norm.weight f4 [64]
0	0x3f7586a6	0.9590858
1	0x3f8681e7	1.0508393
2	0x3f84b272	1.0366957
3	0x3f740965	0.95326835
4	0x3f6f45db	0.93465966
5	0x3f8c1e64	1.0946774
6	0x3f7f4671	0.9971686
7	0x3f87947e	1.0592191
8	0x3f73e361	0.9526883
9	0x3f81e523	1.0148052
10	0x3f66c4ba	0.9014393
11	0x3f8931ae	1.0718286
12	0x3f7c97e6	0.9866928
13	0x3f8cbb56	1.099467
14	0x3f73ddbb	0.9526021
15	0x3f6e48c4	0.9307978
16	0x3f7335ff	0.95004267
17	0x3f84ac8c	1.0365157
18	0x3f763b4f	0.9618425
19	0x3f828262	1.019604
20	0x3f834116	1.0254238
21	0x3f6f6748	0.9351697
22	0x3f822f9b	1.0170778
23	0x3f72a96d	0.94789773
24	0x3f7a8e3d	0.9787329
25	0x3f89f7a9	1.0778705
26	0x3f853eb5	1.0409762
27	0x3f864d6e	1.049238
28	0x3f8b8703	1.0900577
29	0x3f8af039	1.085456
30	0x3f7c0ded	0.9845875
31	0x3f862a92	1.0481741
32	0x3f8ab151	1.0835363
33	0x3f8891be	1.0669477
34	0x3f811c75	1.0086809
35	0x3f696d51	0.9118243
36	0x3f6a1c2b	0.9144923
37	0x3f6d8bd3	0.9279148
38	0x3f74e06d	0.95654947
39	0x3f87bd41	1.0604631
40	0x3f68afaf	0.9089307
41	0x3f868949	1.0510646
42	0x3f891074	1.0708146
43	0x3f7a98b8	0.9788928
44	0x3f8539c3	1.0408252
45	0x3f6c5a29	0.92325073
46	0x3f77e3e7	0.96832126
47	0x3f6c0091	0.92188364
48	0x3f72c335	0.9482911
49	0x3f8761cb	1.0576719
50	0x3f72aca6	0.9479469
51	0x3f874d36	1.0570438
52	0x3f88e39f	1.0694464
53	0x3f76f7e3	0.96471995
54	0x3f787059	0.9704643
55	0x3f68daa9	0.9095865
56	0x3f6ba880	0.92053986
57	0x3f5e57db	0.86852807
58	0x3f698a52	0.91226685
59	0x3f6c75e8	0.9236741
60	0x3f8878cc	1.0661864
61	0x3f8c9e04	1.0985723
62	0x3f88710b	1.0659498
63	0x3f80cbfd	1.0062252

convLayer.0.norm.bias f4 [64]
0	0xbdbb9ded	-0.09160981
1	0x3d609496	0.054829203
2	0xbb95268c	-0.0045517143
3	0xbe42e8fb	-0.19034187
4	0x3d1db2ae	0.03850048
5	0x3dcaf1ed	0.09909425
6	0xbe28c2a1	-0.16480495
7	0x3d11e99b	0.035623174
8	0xbd5df8b2	-0.054192252
9	0xbdd630b0	-0.10458505
10	0xbd0cf6aa	-0.034414925
11	0x3d19d50b	0.03755669
12	0xbcceb66a	-0.025233466
13	0x3da5a865	0.08088759
14	0xbd17ef64	-0.037093535
15	0xbd5ab5ac	-0.053395912
16	0xbd63e373	-0.055636834
17	0x3a231136	0.0006220521
18	0x3ca6d713	0.020366227
19	0x3d7e7c55	0.06213029
20	0x3d9f5fbc	0.07781932
21	0xbda9ecd7	-0.08297127
22	0xbcb07f11	-0.021544965
23	0x3d8f2aa2	0.069905534
24	0xbdb911ab	-0.09036573
25	0x3dda85f8	0.10670084
26	0xbd8be6d1	-0.06831134
27	0x3e50e712	0.20400646
28	0x3dabbae1	0.08385254
29	0x3d7fba9f	0.062433835
30	0xbdf3edf5	-0.11910621
31	0x3d8e721b	0.06955358
32	0x3d2213be	0.03956961
33	0xbd63fd8a	-0.055661716
34	0x3d05c9e0	0.032663226
35	0xbdfd1be5	-0.12358836
36	0x39dd97ac	0.0004226541
37	0x3c0e5064	0.008686159
38	0xbd4af2f0	-0.04954809
39	0x3b06d0a3	0.0020571135
40	0xbcc3fd2f	-0.023924438
41	0x3d2b5449	0.041828427
42	0x3d0bef77	0.03416392
43	0xbc31b02a	-0.010845223
44	0x3d707877	0.058708634
45	0xbd2348b3	-0.039864253
46	0xbb029590	-0.0019925572
47	0xbd29792d	-0.041375328
48	0xbd899fb0	-0.06719911
49	0xbd594699	-0.053045843
50	0xbd93d0c1	-0.07217551
51	0x3da7423c	0.0816693
52	0x3c0535d7	0.008130512
53	0xbd737559	-0.059438083
54	0xbbc68e8e	-0.0060594743
55	0x3d5560da	0.052094318
56	0xbd11c1f7	-0.03558537
57	0xbd583189	-0.052781615
58	0x3c772511	0.015084521
59	0xbd19abbb	-0.03751729
60	0x3d32fd15	0.04369839
61	0x3dc7aada	0.09749384
62	0xbde9cfbe	-0.11416577
63	0xbe16a7c0	-0.14712429

convLayer.0.norm.running_mean f4 [64]
0	0x3fb59e04	1.4188848
1	0xbffeaf5c	-1.9897265
2	0xbde16e45	-0.1100736
3	0x40164437	2.3479135
4	0xbf8d2ab0	-1.1028652
5	0x3fb5713d	1.4175183
6	0xbf7c0324	-0.9844229
7	0xbefe3af4	-0.49654353
8	0x3f85df07	1.0458688
9	0x3fd4bb6c	1.6619697
10	0xbf2ad09c	-0.6672456
11	0xbf45354a	-0.7703444
12	0xbebcee54	-0.3690058
13	0x4001abd1	2.0261118
14	0xbf9af24c	-1.2105193
15	0xbe0d6dcb	-0.13811414
16	0xbf2e2afe	-0.6803435
17	0xbd181a16	-0.037134252
18	0xbf92235a	-1.1417038
19	0xbf036a3e	-0.5133399
20	0xbf666cd7	-0.90009826
21	0xbeb56e79	-0.35435846
22	0xbf16aa98	-0.58854055
23	0x3fc45a97	1.5340146
24	0x3f9b7749	1.2145778
25	0x40093e81	2.14444
26	0x3fee9e27	1.8642014
27	0x401b3356	2.4250083
28	0x3fbad6c0	1.4596786
29	0x3fd91af4	1.696135
30	0x3f9194b7	1.1373509
31	0x4001b6ca	2.0267816
32	0xbf347a51	-0.7049914
33	0x40068eee	2.1024737
34	0xbf4e74b2	-0.8064681
35	0xbcb59a37	-0.022168262
36	0xbf8e9eab	-1.1142172
37	0xbfc18032	-1.5117247
38	0xbfbb2e0e	-1.462343
39	0x3fd46420	1.6593056
40	0xbe45a828	-0.19302428
41	0xbf6276e4	-0.8846266
42	0xbee69808	-0.45037866
43	0xbfbf568b	-1.4948286
44	0x3f768913	0.9630291
45	0xbfaa69a1	-1.3313485
46	0xbca9ddec	-0.020735703
47	0xbf0bd0a3	-0.5461523
48	0xbfdea159	-1.7392989
49	0x3f9dea1f	1.2337073
50	0xbf44a546	-0.7681469
51	0xbfe0bfba	-1.755851
52	0x3f8cab50	1.098978
53	0xbf0589a8	-0.5216317
54	0xbec7bd5a	-0.3901165
55	0xbf25e629	-0.6480432
56	0xbf42bf6a	-0.76073325
57	0x3fc7418b	1.5566877
58	0x3fe24742	1.7677996
59	0xbf28747d	-0.65802747
60	0x3f9e7975	1.2380816
61	0xc0271f81	-2.6112978
62	0x3ed1d187	0.4098017
63	0x3f2ff2f3	0.68730086

convLayer.0.norm.running_var f4 [64]
0	0x43493dcf	201.24144
1	0x441e178f	632.3681
2	0x4131f882	11.123171
3	0x4402a0b7	522.51117
4	0x437a24f0	250.14429
5	0x430cf31b	140.94963
6	0x43612b95	225.17024
7	0x42fc40d0	126.12659
8	0x42ced083	103.40725
9	0x435b56f5	219.33968
10	0x42cf8d06	103.77544
11	0x431cad4d	156.67696
12	0x42980c99	76.024605
13	0x43a5f13b	331.8846
14	0x43935d93	294.73105
15	0x41ce2cd7	25.771894
16	0x431bc457	155.76695
17	0x414cfc32	12.811571
18	0x4375eff7	245.93736
19	0x42ea29c9	117.08161
20	0x434f8aec	207.54266
21	0x42968c66	75.274216
22	0x43320b7d	178.04488
23	0x4346460d	198.27364
24	0x42d326b1	105.57557
25	0x43d54410	426.53174
26	0x43c53920	394.4463
27	0x440de246	567.5355
28	0x431e895a	158.53653
29	0x4343cafa	195.79288
30	0x4299fced	76.993996
31	0x43bd67a7	378.80978
32	0x432f9a9b	175.60393
33	0x43c5cf35	395.6188
34	0x431c5585	156.33406
35	0x415e847c	13.907345
36	0x43a02dc8	320.35767
37	0x440535f8	532.84326
38	0x43c01153	384.13535
39	0x437653b2	246.32693
40	0x42629119	56.641697
41	0x438e2da2	284.3565
42	0x4288e83a	68.45357
43	0x43db9511	439.16458
44	0x4294eeb1	74.466194
45	0x439d5455	314.65884
46	0x40a55ef7	5.1678424
47	0x42c50f46	98.52983
48	0x44201599	640.33746
49	0x42da9056	109.281906
50	0x431b7b90	155.48267
51	0x4409f181	551.7735
52	0x42af57a5	87.67118
53	0x42de2862	111.07887
54	0x42a3009b	81.50118
55	0x42ff9d8b	127.8077
56	0x4320e5da	160.89786
57	0x43737763	243.46635
58	0x4388d37f	273.6523
59	0x43036366	131.38828
60	0x429fe96b	79.955894
61	0x44a20110	1296.0332
62	0x40a1e317	5.058971
63	0x42119c6d	36.40276

convLayer.0.activation.weight f4 [64]
0	0x3e2055ba	0.15657702
1	0x3ea61568	0.32438207
2	0x3e52f035	0.20599444
3	0x3e959bb7	0.29220363
4	0x3e7805af	0.24220918
5	0x3eb9fc04	0.36325085
6	0x3e85d1eb	0.26136717
7	0x3e941bf7	0.28927585
8	0x3e894d0f	0.26816604
9	0x3e91b2c4	0.284567
10	0x3e44366d	0.19161387
11	0x3eb7421e	0.3579263
12	0x3e277e14	0.16356689
13	0x3eaa863e	0.33305544
14	0x3e600314	0.21876174
15	0x3e4bec60	0.19914389
16	0x3e1b85ad	0.15187712
17	0x3e8dc1ec	0.27687013
18	0x3e8068b4	0.25079882
19	0x3e9594ed	0.29215184
20	0x3eb84bfa	0.35995466
21	0x3e23dea2	0.16002896
22	0x3e99a459	0.300082
23	0x3e98ee6d	0.29869404
24	0x3e50f12e	0.20404503
25	0x3ebbf175	0.36707655
26	0x3eaaea76	0.33382004
27	0x3ebfe5b2	0.3747993
28	0x3eb284bb	0.3486689
29	0x3ebccb67	0.36873934
30	0x3e8eae5a	0.27867395
31	0x3ec224cc	0.379187
32	0x3ebf21f7	0.373306
33	0x3e917ae8	0.28414083
34	0x3e60cb36	0.21952519
35	0x3e82c69b	0.2554215
36	0x3e70e26a	0.2352387
37	0x3e7bbde6	0.2458416
38	0x3e436f63	0.1908546
39	0x3ea42bc2	0.32064635
40	0x3e4f75d2	0.20259789
41	0x3eb9082f	0.36139056
42	0x3ea7981c	0.32733238
43	0x3e41f1c6	0.18939885
44	0x3eaaa9bd	0.33332625
45	0x3e53a50d	0.2066843
46	0x3e5f4e05	0.21807106
47	0x3e1f069a	0.15529862
48	0x3e440f0b	0.19146363
49	0x3e8eec78	0.27914786
50	0x3e2f5578	0.17122447
51	0x3eb00bee	0.34384102
52	0x3e754273	0.2395113
53	0x3e1d043c	0.15333647
54	0x3e2a5e3d	0.16637512
55	0x3e9dc10c	0.30811346
56	0x3e81a80f	0.2532353
57	0x3eb8207a	0.35962278
58	0x3e82ef0a	0.25572997
59	0x3e1c5f8d	0.15270825
60	0x3ebb74eb	0.3661264
61	0x3e826056	0.25464123
62	0x3e8c6781	0.27422717
63	0x3e7ad6f7	0.24496065

convLayer.1.conv.conv_decoder.de_conv0.conv2d.weight f4 [1, 64, 3, 3]
0	0x3c894785	0.016757736
1	0x3d25fb2a	0.04052273
2	0xbccf86f8	-0.025332913
3	0xbc1ee4f6	-0.009698143
4	0xbc4bb7ab	-0.012433927
5	0xbc139b1c	-0.009009149
6	0x3d890529	0.06690437
7	0x3d0d1f4e	0.034453683
8	0xbc248b23	-0.010042938
9	0x3d22cfe8	0.039749056
10	0x3d960488	0.07325083
11	0x3d5898ac	0.052879974
12	0x3d0f3cf0	0.034970224
13	0x3db10033	0.08642616
14	0x3d0dc9e6	0.034616373
15	0x3cb73eba	0.022368778
16	0x3dafe4b0	0.085885406
17	0x3cfd7c81	0.030943157
18	0x3dcb5c99	0.09929771
19	0x3d11fb36	0.035639964
20	0x3d20ca5c	0.039255485
21	0x3d7f5200	0.06233406
22	0x3daa1b64	0.083060056
23	0x3dc1c1a3	0.094607614
24	0x3ddae19b	0.10687562
25	0x3d964722	0.07337786
26	0x3d0ee1b9	0.034883235
27	0xbdebdb9f	-0.11516499
28	0xbdbdecf0	-0.09273708
29	0xbe0f424b	-0.13990133
30	0xbd832b4e	-0.06404744
31	0xbd8f44d3	-0.06995549
32	0xbdea2e85	-0.11434654
33	0xbde9c2cf	-0.1141411
34	0xbdefbbcd	-0.11705742
35	0xbe104435	-0.14088519
36	0x3d486f71	0.048934404
37	0x3ce61982	0.028088335
38	0x3c821330	0.01587829
39	0x3d8499ac	0.06474623
40	0xbc46630b	-0.012108575
41	0x3d30424f	0.043031987
42	0x3d1b1b00	0.037867546
43	0xbb8494c9	-0.004046057
44	0x3d395a7d	0.045252312
45	0xbd994d88	-0.07485491
46	0xbdce703a	-0.10079999
47	0xbe046207	-0.1292802
48	0xbe0f3168	-0.1398369
49	0xbd969559	-0.073527046
50	0xbe0ca99d	-0.13736577
51	0xbddc4a6b	-0.107563816
52	0xbe0755bd	-0.132163
53	0xbdc77494	-0.097390324
54	0xbc9377a9	-0.018001394
55	0xbd870e68	-0.06594545
56	0xbd8052d3	-0.062657975
57	0xbdcb2ff7	-0.09921258
58	0xbdca8e85	-0.09890465
59	0xbd087b71	-0.033320848
60	0xbdd02931	-0.10164107
61	0xbddc6311	-0.10761083
62	0xbd71f64e	-0.059072785
63	0x3c83e943	0.016102439
64	0x3daf3469	0.08554918
65	0x3d8ffc19	0.07030506
66	0x3da68a78	0.081318796
67	0x3d9fcb0a	0.078023985
68	0x3dce3d6a	0.100703076
69	0x3d8cb495	0.06870381
70	0x3d2ae3b0	0.041721046
71	0x3d123f09	0.035704646
72	0xbd2ffd9e	-0.042966478
73	0xbe12311d	-0.14276548
74	0xbe058747	-0.13039885
75	0xbd390cc1	-0.04517818
76	0xbe138d2d	-0.14409323
77	0xbdb12c7f	-0.08651065
78	0xbd1df531	-0.03856391
79	0xbdca34e0	-0.09873366
80	0xbe1bef6b	-0.1522805
81	0xbe0881d9	-0.13330783
82	0xbda34b06	-0.07973294
83	0xbdb2b2a0	-0.08725476
84	0xbdc8486c	-0.097794384
85	0xbe0ad8a0	-0.13559198
86	0xbdaa8d8f	-0.083277814
87	0xbdf5ad18	-0.11995906
88	0xbde703d6	-0.112800285
89	0xbdfb0999	-0.1225769
90	0x3c978e5a	0.018500496
91	0x3c51ceb3	0.012805629
92	0xbb281b0b	-0.0025650884
93	0xbcfa72b2	-0.03057227
94	0x3cbc5f19	0.022994565
95	0xbad82ab9	-0.0016492225
96	0x3d1d74c9	0.038441453
97	0x3c966be6	0.018361997
98	0x3ce750d3	0.028236782
99	0x3dbd730a	0.092504576
100	0x3dfb6020	0.12274194
101	0x3de5f787	0.11228853
102	0x3dd9e6c4	0.10639718
103	0x3dbd62ba	0.09247346
104	0x3db8c6ed	0.09022317
105	0x3dd5e2bc	0.10443637
106	0x3dd325b4	0.10309926
107	0x3d73865b	0.059454303
108	0x3b4d174c	0.0031294404
109	0x3b0420af	0.0020161083
110	0x3ca649f8	0.020298943
111	0x3cde14f1	0.027109595
112	0x3c9ad281	0.018899204
113	0xbcde7656	-0.027156036
114	0xbcb6bef9	-0.02230786
115	0xbce08796	-0.027408402
116	0x3d07c739	0.033148978
117	0xbdf9c8a5	-0.12196473
118	0xbd9a9033	-0.07547035
119	0xbd91b7ba	-0.07115121
120	0xbe02831c	-0.12745327
121	0xbdb2fc87	-0.08739572
122	0xbe132fca	-0.14373699
123	0xbdbcdf06	-0.09222226
124	0xbdd43c78	-0.10363096
125	0xbe108275	-0.14112265
126	0x3d9ff2d1	0.078099854
127	0x3d8986da	0.06715174
128	0x3d09e453	0.033665013
129	0x3d0de26f	0.034639772
130	0x3da84a7b	0.08217331
131	0x3c054102	0.008133175
132	0x3d80a8f9	0.06282229
133	0x3da59aa9	0.0808614
134	0x3cb51483	0.022104507
135	0xbc16e939	-0.009210878
136	0xbd2ffb01	-0.042963985
137	0x3aed8545	0.0018121382
138	0x3c9dd9d3	0.019268906
139	0x3b322f52	0.002718885
140	0xbce5c99e	-0.02805024
141	0xb9bdafe2	-0.00036179932
142	0x3c4e9967	0.012609816
143	0x3c8ce16d	0.017197335
144	0x3d2d8239	0.042360518
145	0x3a3d5b56	0.0007223388
146	0xbcb6e836	-0.022327524
147	0x3d5dd96c	0.054162428
148	0x3d4bc06c	0.049744055
149	0xbce15ae5	-0.027509162
150	0x3d3a2e0d	0.045454074
151	0xbc9cc297	-0.019135756
152	0x3d4788f7	0.048714604
153	0x3d92222f	0.07135426
154	0x3d6b7526	0.05748477
155	0x3dabd4d0	0.083902
156	0x3d3c2d66	0.045941733
157	0x3dd351f0	0.10318363
158	0x3deaf1ed	0.11471925
159	0x3e0199ac	0.12656277
160	0x3df9cef2	0.12197675
161	0x3d7e9807	0.062156703
162	0x3b779a7c	0.003778129
163	0x3c646b02	0.013941528
164	0x3ce29939	0.027660953
165	0x3d3f61ec	0.046724245
166	0xbb05f04e	-0.0020437422
167	0xbc465a90	-0.012106553
168	0x3d21789c	0.039421663
169	0x3d00b072	0.03141827
170	0xbca97a16	-0.020688098
171	0xbc8f6eed	-0.017508948
172	0x3cd64720	0.026156962
173	0x3ceefcf2	0.029173348
174	0xbb4b9f5e	-0.0031070332
175	0x3d4937eb	0.049125593
176	0x3ba8f487	0.005156103
177	0x3c7aff49	0.015319654
178	0xbcc1715d	-0.023613626
179	0x3cdc18bd	0.026867265
180	0x3de0b763	0.10972478
181	0x3dd4685d	0.10371468
182	0x3d88fdef	0.06689059
183	0x3db33d11	0.08751882
184	0x3debc674	0.11512461
185	0x3d9cb50c	0.076517195
186	0x3d8a0387	0.06738954
187	0x3de5f252	0.112278596
188	0x3d5dd648	0.054159433
189	0x3d5fdcb0	0.054653823
190	0xbc6fd6d4	-0.014638621
191	0x3bbce0f6	0.005764122
192	0x3a691860	0.0008891877
193	0xbce8f040	-0.028434873
194	0x3d329905	0.043602962
195	0x3ce3433c	0.02774202
196	0xbceddbbb	-0.02903544
197	0xba8cd37f	-0.0010744183
198	0xbdb2d505	-0.087320365
199	0xbdaac0bc	-0.083375424
200	0xbe07b539	-0.13252725
201	0xbe10dc63	-0.14146571
202	0xbd8f62be	-0.070012555
203	0xbdb5df89	-0.088805266
204	0xbd86d06f	-0.06582724
205	0xbd8be589	-0.0683089
206	0xbdccb193	-0.09994807
207	0xbd737f45	-0.059447546
208	0xbdb2f2da	-0.087377265
209	0xbd636132	-0.055512615
210	0xbd04830c	-0.03235154
211	0xbcf084ef	-0.029360263
212	0xbd390173	-0.045167398
213	0xbda78199	-0.08179016
214	0xbd073585	-0.033010025
215	0xbd9a2f0a	-0.07528503
216	0xbd89123e	-0.066929325
217	0xbdcf5ec8	-0.101255
218	0xbdb2aa86	-0.08723931
219	0xbe06b909	-0.13156523
220	0xbd0f6f2f	-0.035018142
221	0xbd9d0eb0	-0.07668817
222	0xbe0e64f8	-0.13905704
223	0xbd9516f4	-0.072797686
224	0xbdf0e638	-0.11762661
225	0xbe150c69	-0.14555515
226	0xbe00c614	-0.12575561
227	0xbdddb3c6	-0.10825305
228	0xbdb49782	-0.0881796
229	0xbdd2e058	-0.102966964
230	0xbd8836f0	-0.066511035
231	0xbdaf574a	-0.08561571
232	0xbdd63063	-0.10458448
233	0xbde02763	-0.109450124
234	0xbd997088	-0.07492167
235	0xbde7d375	-0.11319629
236	0xbd85e586	-0.06537919
237	0xbdc3ae4a	-0.095547274
238	0xbdc1c3c2	-0.09461166
239	0xbdd2bb5c	-0.10289642
240	0xbe0d9979	-0.13828076
241	0xbdd654d5	-0.10465399
242	0xbd8334e2	-0.06406571
243	0xbcd6b993	-0.026211536
244	0xbcb722d8	-0.022355482
245	0xbd58e9fa	-0.052957512
246	0xbd616cb7	-0.05503532
247	0xbd20c3ee	-0.039249353
248	0xbd9b8c86	-0.07595162
249	0xbd9d817e	-0.07690714
250	0xbdca6af6	-0.098836824
251	0xbd95f916	-0.073229
252	0xbe004e11	-0.1252978
253	0xbe0eae15	-0.13933595
254	0xbdc134bd	-0.09433887
255	0xbd8687ff	-0.06568908
