CSC-IVF/Train_result/LISTA_Decoder.model (torch_old, 96345 bytes, 11 tensors)

decode_last.1.weight f4 [32, 64, 3, 3]
00000000: db2c 54bd 6f7d 2d3d 6123 06bd 4888 d2bc
00000010: 4be7 1dbd f98e b2bb 4859 6ebd 7cfa 47bd
00000020: 96d2 96bd e726 743d 743e 923d ecde 8c3d
00000030: dda0 f83d 6264 b93d d873 043e 8dd8 ac3d
00000040: 9a09 8e3d a03f fd3d a6a4 053d f2de 5ebc
00000050: b33e 3f3c 56c8 4a3d a60f 363d bdbf c1bc
00000060: 6722 74bb 915b 6e3c 529b f2bb 97a9 d6bd
00000070: 80b0 07be e682 0ebe fba1 81bd 930f 52bd
00000080: a048 9dbd ecf7 63bd e1b4 10bd fd74 b6bd
00000090: 5ce8 353d 16ca a73d ba89 ba3d 6ed1 6d3c
000000a0: f8dd 143d a2ea 853d 2c02 96bd 2349 eabb
000000b0: 9c11 4b3d ee47 c6bd 2eaf 28bc 3cba a9bd
000000c0: 6702 ebbc a1cd 1ebc 7a43 83bd d739 70bd
000000d0: 5d04 bfbd 9f1e 2ebd 6e2e 753c 4b7d 95bd
000000e0: 9a78 6ebc c510 0c3b 87b1 a4bc d30e 17bc
000000f0: f4be 0bbd b485 8ebd f130 39bd a29c 943d
00000100: fb2e 0a3e 2f95 cc3d eb9c 963d 3465 2f3d
00000110: 0deb 603d f9ca 89bd cf62 d33c 8fe4 513c
00000120: df8f b5bd 643f d4bd 6e05 b8bd a71f 4abd
00000130: af39 5abd cf63 e03b a3b6 aebd 534d 853c
00000140: f3ca 20bc 8c1a 09bd 4f17 10bd c839 a7bd
00000150: 16df 0cbd 8ae1 73bd 4b2c 1bbd 1b56 bfbd
00000160: ee45 0dbd 2a92 45bd 9c0f 28bd 9876 533d
00000170: 647e 43bd 353b a4bd 076e 9ebd a8dc 7dbd
00000180: 179f b6bd 534b 3fbc 8845 f5bd c5cf e8bb
00000190: b949 ad3d d8ba 9c3c 89e3 ba3c 88d4 2e3d
000001a0: d5ce 4c3d 2f3a 1a3d 6b02 213d 0922 173d
000001b0: 80b7 953d 4017 d5bd b0a2 dfbd 957e c9bc
000001c0: dbac 1dbd 8cc3 9cbd 5a28 87bd f589 86bd
000001d0: a3e3 d8bd 5eb5 ffbc 5d1f 173c bd70 d6bd
000001e0: 0f20 f7bc 9376 de3b 8de6 1abe c3d2 c3bd
000001f0: a094 21bd 86cd f3bd 1038 30bd 8839 d7bd
00000200: c0b0 cabd dbb1 89bc 1811 9fbd 7d06 cdbd
00000210: 329f 6d3c b853 d23c 422d 503c f552 e6bc
00000220: 0a97 73bd c7d5 cebc 4115 12bd ff90 0abd
00000230: caf9 c8bc e97f fbbc 8b3c a9bd d1bc babd
00000240: 1ec0 913b dca8 4dbd a7f3 34bc 1432 55bd
00000250: 832a b2bb 499c 563b 0e70 6bbd f445 19bd
00000260: 3cbf 82bd b1c0 e1bb 6ac2 ce3c 9b25 e73c
00000270: ebb1 4fbd ae47 d8bc 28c9 36bc 1b89 6dbd
00000280: c1ff 00bd 8ae4 b4bc dc06 51bd 8279 8fbd
00000290: 1d0b cbbd 64c5 96bd 9991 f0bd d623 a0bd
000002a0: 09f5 cbbd 7b53 70bd acff d2bd 4624 03be
000002b0: bb18 1cbe 19c4 c4bd efd1 6ebd 27fa d8bd
000002c0: f7e1 a5bd da04 8a3c 0c32 aebd 2040 45bd
000002d0: 777b 8cbd 75d1 61bc 6da8 04be b4a6 d4bd
000002e0: 31ea efbc 1325 64bd 3c97 4abd 7426 e2bd
000002f0: 3c45 fabd 46ed 5e3b 7f56 8f3c cb1a babc
00000300: 22ef f1bc 5e15 953b 823f 30bd 354d d4bc
00000310: 096a 88bd b2fd c7bd 613c 4abd 9028 dbba
00000320: edda 623d a21b eebb a76a 6bbd 7b3f ea3c
00000330: 0a71 b4bd 4258 d4bd 3d97 233d b39f a2bd
00000340: 64dc 4dbd 9202 a6bd 4003 dbbd b2f0 7cbd
00000350: 0152 08be 4680 05bd bda2 e2bc b470 afbd
00000360: 0bf4 a9bc 7b1f 9ebc e23b b1bd 6833 a5bd
00000370: 09d5 6ebd 0f3b 99bd 9140 16bb c180 123c
00000380: 969f 4bbc f944 4ebd a17f 50bc 06e5 08bc
00000390: 3f9b cebc 81c7 b6bd e3ad 87bd cdc8 0fbd
000003a0: 954b d0bd c735 d2bd 536b f73c e350 8abd
000003b0: cb81 c8bc 7219 173d af06 913b 6df2 e0bd
000003c0: f60d ec3d 0978 f73d 2663 f03d 4bb8 d43a
000003d0: b667 073c 7799 8fbc 8e33 aabc bd64 13bd
000003e0: 3b74 493c 625c cdbc 7a8b 8fbd 60d3 44bd
000003f0: 4eaf a7bc 699f 1dba 7167 72bd 677f a23a
-0.05180059 0.04235595 -0.032748584 -0.02569975 -0.038550656 -0.0054491726 -0.058190614 -0.048822865
-0.07364385 0.059607413 0.07140818 0.068784565 0.12140057 0.090523496 0.12934816 0.08439741
0.06935425 0.12365651 0.032627724 -0.013602959 0.0116726635 0.04950746 0.044448517 -0.023650998
-0.003725195 0.014548198 -0.0074037695 -0.104815654 -0.13250923 -0.13917121 -0.063297234 -0.051284384
-0.07679868 -0.05565636 -0.03532875 -0.089090325 0.04441105 0.08192842 0.091083005 0.014515264
0.0363445 0.06538893 -0.07324633 -0.007149832 0.04957734 -0.09681688 -0.010295672 -0.082874745
-0.028687669 -0.00969258 -0.064093545 -0.05864891 -0.09327004 -0.04250967 0.014964683 -0.07299288
-0.014555121 0.00213723 -0.020104183 -0.009219843 -0.034117654 -0.069590956 -0.04521269 0.07256438
0.13494484 0.09989392 0.073541485 0.042821124 0.054911662 -0.06728167 0.025803952 0.01281084
-0.08865332 -0.10363653 -0.08985411 -0.049346592 -0.053277668 0.0068478356 -0.08530929 0.016272223
-0.009814012 -0.033472583 -0.03517848 -0.08165318 -0.03439244 -0.059541263 -0.037884038 -0.09342595
-0.03449052 -0.048235096 -0.04103051 0.05162677 -0.047727957 -0.08019105 -0.0773583 -0.061978012
-0.08917063 -0.011675674 -0.11976153 -0.007104846 0.08461327 0.019132063 0.022813575 0.042683154
0.050001938 0.037653144 0.039308947 0.036897693 0.073103905 -0.10404825 -0.10919702 -0.024596492
-0.038494926 -0.07654485 -0.06599493 -0.06569282 -0.10590293 -0.031214412 0.009223786 -0.10470722
-0.030166654 0.0067890375 -0.1512701 -0.09561684 -0.03944838 -0.11904435 -0.043022215 -0.1050902
-0.09896994 -0.01680844 -0.07766932 -0.10011003 0.014503287 0.025674686 0.012706103 -0.028115729
-0.059470214 -0.025248421 -0.0356648 -0.033829685 -0.024533171 -0.03070064 -0.08263501 -0.09118045
0.004447951 -0.050209865 -0.011044419 -0.05204971 -0.0054371967 0.0032746962 -0.05747991 -0.037420228
-0.06384131 -0.0068894257 0.025239188 0.028216174 -0.050706785 -0.026401367 -0.011156358 -0.057992082
-0.031493906 -0.022081632 -0.051031932 -0.07005598 -0.09914229 -0.07361868 -0.117465205 -0.07819335
-0.09958846 -0.058673363 -0.10302672 -0.12806806 -0.15243809 -0.09607715 -0.058305677 -0.10594588
-0.0809974 0.016848017 -0.085056394 -0.048156857 -0.068594866 -0.013782849 -0.12954874 -0.103833586
-0.029286476 -0.05569942 -0.049460635 -0.110424906 -0.12220237 0.0034015938 0.0174973 -0.022717854
-0.029532973 0.0045496663 -0.043029316 -0.025915721 -0.066608496 -0.097651854 -0.049373988 -0.0016720463
0.055384565 -0.0072664777 -0.05747476 0.028594723 -0.08810623 -0.10368396 0.039939154 -0.079406165
-0.05025901 -0.08105959 -0.10693979 -0.061752982 -0.13312532 -0.032593034 -0.02766549 -0.08566418
-0.020746252 -0.01930212 -0.08654 -0.080664456 -0.058308635 -0.07481968 -0.0022926668 0.00894183
-0.012428185 -0.050358746 -0.012725742 -0.008355385 -0.025220511 -0.08924771 -0.06624963 -0.035103608
-0.10170666 -0.102641635 0.030202543 -0.06753709 -0.024475953 0.0368895 0.0044258456 -0.10983739
0.115261 0.12083442 0.11737661 0.001622924 0.008264473 -0.017529232 -0.020776536 -0.035984743
0.012295778 -0.025068466 -0.07009025 -0.048053145 -0.020469334 -0.00060128287 -0.05918068 0.0012397588

decode_last.2.weight f4 [32]
00000000: 03f0 5f3f b846 853f fd93 763f 232a 7f3f
00000010: a088 953f 1dbd 303f d4b2 863f 8a67 6c3f
00000020: 1b93 833f 7b2d 793f 042b 803f 3561 613f
00000030: 3637 633f e0b4 6f3f dbf5 6e3f 6e59 7f3f
00000040: b273 853f de95 873f 2b2c 973f 26de 953f
00000050: 9674 823f c89e a43f c211 8e3f 67a4 833f
00000060: df62 663f 297a 713f d4b7 7e3f 642f 713f
00000070: 5350 683f 1a3d 7b3f 19b5 513f 70bb 733f
0.87475604 1.0412207 0.9631956 0.9967367 1.168232 0.69038564 1.0523324 0.9234549
1.0279268 0.9733502 1.0013127 0.8803895 0.8875612 0.9363537 0.93343896 0.99745834
1.0425932 1.0592611 1.1810354 1.1708419 1.0191829 1.2860956 1.1099169 1.0284547
0.89994615 0.94327027 0.9949925 0.9421294 0.90747565 0.9814011 0.8191696 0.9520788

decode_last.2.bias f4 [32]
00000000: 285e a23c 1adb 3fbd 53db 11bd 3d9d 6c3d
00000010: 07cb 1bb9 dd41 ce3c 1d06 a2bc 8b9c 673c
00000020: f25f 8b3a 6c3c 1b3d 7456 b0bc ff8c e7bb
00000030: bf76 203d 4e3c 3bbd 59f0 78bc ecfc bc3b
00000040: 65e2 00bd fc33 c938 3aae 223c 9f39 423d
00000050: 0598 c5bc 3b02 463c f7b4 19bc a2b3 22bd
00000060: 2cf8 5c3c f8e0 953c 814d c63c b456 453d
00000070: ec40 ccbc 7f80 f2bc 002e abbb 7492 fa3c
0.019820288 -0.04683981 -0.035609554 0.05776714 -0.00014857585 0.02517789 -0.019778306 0.014136444
0.0010633452 0.03789942 -0.021525599 -0.0070663686 0.039175745 -0.045711808 -0.015194022 0.0057674553
-0.031465907 9.59411e-05 0.009929234 0.047418233 -0.02412034 0.012085493 -0.009381524 -0.039722092
0.013486903 0.01829575 0.024206879 0.04817839 -0.0249333 -0.029602287 -0.0052239895 0.030587412

decode_last.2.running_mean f4 [32]
00000000: 6838 15c0 31d3 1ebe b00c 1e3f 284e b9bf
00000010: 3328 463f 945e a4be 6bfa ccbf 34c0 133f
00000020: 5767 b53f 9142 fdbf 2145 553f 291f 523f
00000030: 7611 42bf 5fa6 713f afc0 373f 609f 603f
00000040: 2e87 c33e 9c07 17bf c36b 1bbf 4c5d 1a40
00000050: 8e16 bd3e ffac 2a3d 5fe5 d63f 0e75 e33f
00000060: b5b1 6dbf 99d5 4bbf a400 10bf c664 1cc0
00000070: 42be 56be f726 123e 94e5 593e 6e97 423e
-2.3315678 -0.1551025 0.6173811 -1.4476976 0.7740509 -0.32103407 -1.6013921 0.57715154
1.4172162 -1.978594 0.8330861 0.82078797 -0.75807893 0.9439449 0.71778387 0.87743187
0.3818907 -0.58995986 -0.60711306 2.4119444 0.3693127 0.04166889 1.6788749 1.7770097
-0.92849284 -0.796228 -0.5625098 -2.4436507 -0.20971015 0.14272676 0.21278983 0.19003078

decode_last.2.running_var f4 [32]
00000000: 6873 9c42 5718 9c41 fe27 3642 aaff 0243
00000010: ac97 ae41 4066 4541 f832 b541 337c 6e41
00000020: 08c4 1141 0f69 a342 6e36 4d42 3936 5442
00000030: eaae 0742 845c 6c42 1a59 4041 9b89 a841
00000040: b45c 3042 cae6 2d42 ae1a 5441 915d a941
00000050: 4fc5 3e42 1bfd e540 b6e8 3841 cda7 9242
00000060: 4380 3842 957f 0842 c3c9 b841 6896 fc42
00000070: 690d 0a41 4fc4 1142 b871 1c42 9464 e341
78.2254 19.511885 45.539055 130.99869 21.824059 12.337463 22.649887 14.905322
9.110359 81.70519 51.303154 53.05295 33.920815 59.090347 12.021753 21.06719
44.09053 43.47538 13.256514 21.170687 47.692684 7.1871467 11.556814 73.327736
46.125256 34.12459 23.098516 126.29376 8.628274 36.441708 39.111053 28.42411

decode_last.4.weight f4 [16, 32, 3, 3]
00000000: 764e 88bd 4566 d8bd 2c5e 6abd 40eb 02be
00000010: fa35 00be 96b7 c3bd fe13 dbbd d518 09be
00000020: b69a 70bd b575 383d e0a5 dd3c a3c8 1f3d
00000030: 1ac4 573d 783c 0e3c 3cfd 1c3d 4d52 de3d
00000040: acbb 183d f880 063d b9e9 813d e39c b63c
00000050: e6e6 323d ba7d 143d 7c41 b23c 32a5 d83c
00000060: 8359 ae3c 4033 3bbc 3c35 7d3d 0b32 09be
00000070: 7ed5 00bd cdb7 24bd b6f9 41bd 42d1 96bc
00000080: 1286 3bbd 0339 c0bd 2a75 e2bc 7371 27bc
00000090: ddc1 b1bd d981 573b 4bd8 7bbe 5a42 e3bd
000000a0: 32da 6cbc ce2e 45be d3fc 89bd 6285 35bd
000000b0: ffd2 cfbd a64e 8c3c d08e 55bc 1045 093d
000000c0: 8c7c 083d 3ab1 893d c8e8 5c3c 0f3d 1ebd
000000d0: 310d 50bb 6def 1b3d 6486 0b3d c6c5 3abc
000000e0: 157a 4b3c 225c c73d bcdf f53d b578 ac3d
000000f0: 9d54 5c3d f6e5 a53d 4857 2b3d e0db dd3c
00000100: eb65 4e3d bf7e e3b8 7e23 e1bc a3ba 5d3c
00000110: b5f4 a43c 6145 fabc bacf 5dbd bef7 6d3b
00000120: 48ef f43d 86c3 c8bc 273d 823d d080 253e
00000130: c234 cabd 13d0 013c 1c67 8e3d f4ef e1bc
00000140: 182a 99bc 5990 b3bd c2ed c83d 58d3 44bc
00000150: 5b0b f33a 2be1 743d 82a7 5dbd cf86 cbbb
00000160: 8c0f d93c 050e 72bb c761 c53d e5f9 fb3d
00000170: d565 f33d 0c7d 8c3d 4fee 2b3e 0104 063e
00000180: 7893 243d 7b5d 923d ccf5 d83d 1f95 c53c
00000190: 6bc0 dd3b 9c16 19bd 2862 883c de1e 6f3d
000001a0: b459 e1bc f8dc 703d dbd8 713d 53bb 403d
000001b0: c4ba c13c 6177 9fbd e808 d7bb 2a72 9bbd
000001c0: e528 28bd 6e0f a13c f6b2 50bd 8922 1cbd
000001d0: ce44 96bd 0d2b cf3d 869c 983b e90b bc3c
000001e0: 1f20 053e bd27 a03d e702 e73d 4a41 103e
000001f0: 008f 2c3d 6093 543d c5c8 26be 1935 e0bd
00000200: f421 15be 92f0 cc3c 9611 e53d 90a8 01bd
00000210: fd57 323d 35fb b13c c71f 6a3c 4254 5ebc
00000220: 93da 723b 2ed2 aabd 5998 90bc 17be 513c
00000230: 2f5c 22bd 2e96 98bd 1bbb 3dbd 8318 993c
00000240: b8d0 db3d f3d7 bfbc cd35 8c3d 238a cb3c
00000250: 5806 913c bcd7 7f3d e893 d03d b903 6c3d
00000260: 104d 993d 21fd 443c 7c9a 05be 4389 2dbd
00000270: 0777 9c3d 2aa9 db3d 1da8 36bd f090 bb3d
00000280: 6940 063d 9e5a c23d e16b 44bd 2ca5 7abd
00000290: 1194 963d 4246 033b 7e1a ea3c 8bb3 6b3d
000002a0: e482 7ebd 8e7e 573d 3c84 d53d 08c8 b2bd
000002b0: be09 4bbe 3793 14be 12c8 e6bd 83aa 29be
000002c0: b169 e6bd 7f13 01be 75b8 3ebe f7c8 8fbd
000002d0: 3da6 9a3d 574e 613d 3f24 ae3d dbc9 d03d
000002e0: 0786 b93c e428 a73d 4c97 8a3c baf0 f33d
000002f0: c6f1 883d 89f4 bcbc 3463 3d3d b7e8 adbb
00000300: 07db 7fbd cc4f 81bd b285 fabc 9a46 97bd
00000310: 1f44 ea3b 49b6 b6bd 6909 af3d 92ec 613d
00000320: 23ef f83d c270 8a3c dd3d 07be f7ac 0abd
00000330: 6c43 13bd aca1 3cbd d822 0dbd 60d1 053e
00000340: 42ce c83d 8187 223e 3c58 283e 48e9 013e
00000350: fb42 1a3e cb5c 823d 89b0 003e dccd c83d
00000360: a901 04be 7759 c0bc 682a 69bb d6f6 2abd
00000370: 839a acbb ed73 9d3c b3a2 373c b04b d6bc
00000380: bd6f a6bd 79f4 30bd 5272 bbbd eead 84bd
00000390: 617d b8bc aaeb b3bd 86ec b4bc 151a 96bc
000003a0: 92a6 83bd 5920 94bd 0eb6 ebbd d9ae 123c
000003b0: 1883 99bd 207c a4bc a404 983c a5d1 b6bc
000003c0: 0b41 dbbc d426 62bd b655 793d c96b e4bd
000003d0: fc56 abbd ecd1 a2bd 867b a8bd b5b0 54bd
000003e0: 0e81 a2bd 7754 edbc 6ade b7bd 733e 71bd
000003f0: 927c 04be 14d0 b0bd 5026 b8bd 7ff0 cd3d
-0.0665559 -0.10566381 -0.057218716 -0.12785053 -0.1252059 -0.095565006 -0.106971726 -0.13388379
-0.058741294 0.04503413 0.027056634 0.0390097 0.05267725 0.008681409 0.03832744 0.108555414
0.037288353 0.032837838 0.06343407 0.022291606 0.043677233 0.036252715 0.021759741 0.026445959
0.021282917 -0.011425793 0.061818346 -0.13397996 -0.031453602 -0.04021435 -0.047357284 -0.018410329
-0.045782156 -0.09385874 -0.027643759 -0.0102199195 -0.086795546 0.0032883792 -0.24594228 -0.1109664
-0.014456319 -0.19256136 -0.067376755 -0.044316657 -0.10147666 0.017127346 -0.013034537 0.03351313
0.033321902 0.067232564 0.013483234 -0.03863245 -0.0031746144 0.03807013 0.03406371 -0.011399692
0.012419243 0.0973437 0.120055646 0.084214605 0.05379163 0.08100502 0.041831285 0.027082384
0.050390165 -0.00010847812 -0.027482744 0.013533267 0.020136217 -0.03055066 -0.05415318 0.0036310996
0.11959702 -0.024507295 0.0635932 0.1616242 -0.09873344 0.007923144 0.0695326 -0.027580239
-0.01869683 -0.087677665 0.09810974 -0.012013279 0.0018542813 0.05978505 -0.054114826 -0.006211139
0.026496671 -0.0036934626 0.0963779 0.12303523 0.11884657 0.06859788 0.16790126 0.13087465
0.0401797 0.07146736 0.10593757 0.024118958 0.006767323 -0.037375078 0.016648367 0.058379047
-0.027508594 0.058804482 0.0590447 0.047053646 0.023648627 -0.077864416 -0.006562341 -0.075901344
-0.041054625 0.019660678 -0.05095192 -0.038118873 -0.07337342 0.10115633 0.004657331 0.022954898
0.13000534 0.078200795 0.112798505 0.14087406 0.042128563 0.05189836 -0.16287525 -0.109476276
-0.14563733 0.025017057 0.11184995 -0.031654894 0.043540943 0.02172623 0.014289803 -0.013569893
0.003705655 -0.0834087 -0.01765077 0.012801669 -0.039638694 -0.074505195 -0.046321016 0.018688446
0.10733169 -0.023418402 0.06846199 0.024846142 0.01770322 0.0624616 0.10184461 0.057620738
0.07485402 0.012023241 -0.13047212 -0.04236723 0.0763989 0.10725625 -0.04459392 0.09158504
0.03277627 0.0948994 -0.047954444 -0.061192676 0.0735246 0.002003089 0.028577086 0.057544272
-0.062136546 0.052610926 0.10425612 -0.08729559 -0.19827935 -0.14509283 -0.11268629 -0.16568951
-0.11250628 -0.12605093 -0.18625052 -0.07020753 0.07551239 0.05500635 0.08503007 0.10194751
0.022646917 0.08162096 0.016917847 0.11911149 0.066867396 -0.023065822 0.046237186 -0.005307283
-0.06246474 -0.06314048 -0.030581329 -0.07386513 0.007149234 -0.08921487 0.08546717 0.05515725
0.12154987 0.01689947 -0.13207193 -0.03385636 -0.03595297 -0.04605262 -0.034457058 0.13068151
0.098049656 0.15872003 0.16439909 0.12686646 0.15064614 0.06365355 0.12567343 0.098048896
-0.12891258 -0.02348016 -0.0035578255 -0.041739307 -0.0052674427 0.019220317 0.011208224 -0.026159137
-0.08126781 -0.043201897 -0.09152664 -0.06478487 -0.022520723 -0.08785184 -0.02208544 -0.018322984
-0.06428255 -0.07232732 -0.115093336 0.00895282 -0.07495707 -0.020078719 0.0185569 -0.022316763
-0.026764413 -0.05521281 0.060872756 -0.11153371 -0.083662 -0.07950196 -0.08226685 -0.051926333
-0.079347715 -0.02897094 -0.08977969 -0.058897447 -0.12938145 -0.08633438 -0.089916825 0.100556366

decode_last.5.weight f4 [16]
00000000: f721 823f 6bc9 793f 42eb 843f 3ca1 843f
00000010: ef51 5e3f 8616 393f be28 8c3f c84f 893f
00000020: 1a7c 873f 618c 833f 166d 803f 760f 5c3f
00000030: fccd 5d3f 556f 7d3f 9440 2a3f a955 803f
1.0166615 0.97572964 1.0384295 1.0361705 0.8684377 0.72299993 1.0949934 1.0727472
1.0584748 1.0277215 1.003329 0.8596109 0.8664243 0.98998004 0.6650479 1.0026141

decode_last.5.bias f4 [16]
00000000: 1c39 93bd eab7 d23c 3735 863d b795 8f3d
00000010: b50b 623d a90f 1ebd 21fc 44bd 7532 b8bd
00000020: 151b 9b3d 9f47 adbd c92e 43bd e7f8 aa3c
00000030: f1da 203c a64b 1c3d a19d 233d a698 5cbd
-0.07188627 0.025722463 0.06553119 0.07010978 0.055186946 -0.038589153 -0.04809201 -0.08993999
0.07573525 -0.08460926 -0.04765204 0.020870639 0.009817825 0.03815808 0.03994525 -0.053856514

decode_last.5.running_mean f4 [16]
00000000: 55d0 bbbe 1611 ad3e 0623 c03e 7606 a43e
00000010: c3c5 abbd 04c6 5a3e f94d f7bc ee77 b9be
00000020: b354 cf3e 1f51 d4be 2372 053e 7a5d b33e
00000030: 2643 6abe 1b85 c03e c380 9cbe aba1 c9bb
-0.36682382 0.33802098 0.3752672 0.3203618 -0.083873294 0.213646 -0.030188547 -0.36224312
0.40494308 -0.4146814 0.13031821 0.35032254 -0.22877178 0.3760155 -0.30566987 -0.0061533055

decode_last.5.running_var f4 [16]
00000000: ade0 9342 535c 1c42 ff9d a242 4d0e c042
00000010: 8f4c c441 0835 1442 75a9 1641 c1ed e342
00000020: 65cf b342 50b0 aa42 76bb eb41 7b48 a242
00000030: 648d 4142 ce15 a342 e51c 5e42 f521 1841
73.93882 39.09016 81.308586 96.02793 24.537382 37.05179 9.416371 113.96436
89.90507 85.34436 29.466534 81.14156 48.388077 81.54259 55.528217 9.50829

decode_last.7.weight f4 [1, 16, 3, 3]
00000000: 1356 083e 6c13 e23d 1dc1 363e 53f0 8e3d
00000010: a362 493d faa8 b43d 0591 053e bf48 d0bc
00000020: c76a e53c 699b 91bd bc13 cfbd 3313 0bbd
00000030: 84f2 3abe c89b 57bd c789 21be 10c6 12bb
00000040: 5c40 dabc 69eb fa3d 85da acbd fb99 b3bb
00000050: e18e 0dbe c927 18be ea0b 93be 286b fbbd
00000060: 388f bd3d 331e 75bd 627c aebd a2d7 3ebd
00000070: 4dfc 26bd b466 7e3c 9dad 843d 88e6 5abe
00000080: d057 5cbe 00da a8bd 5912 49be 547f c5bd
00000090: 8156 f3bd 6767 97bd e956 ff3a abbe b03d
000000a0: 7ea0 e23d 917e acbc e6cc debd 0e36 30bd
000000b0: 5875 1e3d 7dc7 c2bd 66de 673c 2583 86bd
000000c0: 5d18 063d 08f5 6bbd d92e 9d3c e98e 613d
000000d0: 592a b8bd 2150 e9bd 0c4a 023c 9ce9 cbbc
000000e0: 6544 723d 1822 a83e 8ddd f7bc d436 4abe
000000f0: b3d4 553e 78d6 82bd a210 09be 7c32 8c3d
00000100: f11e 633d b226 ea3d c8a8 0e3e 5a43 3b3e
00000110: 75ca 263e 3818 1f3e b1c0 073e cd01 1b3e
00000120: f4b7 d9bd 5478 03be 1ef0 39be 61ab 2cbe
00000130: 074d 63be 0344 58bd b405 92bd 9ba3 84bd
00000140: 2046 0ebe 42cf 2f3e 6f93 663d 8e68 323e
00000150: efbc 163e eeb3 023e 2121 a53c 8220 6a3c
00000160: 0418 943c fc81 103e 59f3 91bd 43c4 09bd
00000170: 2d57 2bbe 45c0 a2bd 49ca 073e c1a8 e33d
00000180: fa2e 8c3e ff89 3f3e 212e 1e3e 4e35 b2bd
00000190: 688e 253c 8b11 d8bd 9600 813d fb02 acbd
000001a0: 91ad f1bd 795b 5bbd 5525 72bd 3865 23bd
000001b0: 07a8 febc 6cae 0e3d de5b 87bd 7d43 32bc
000001c0: 0e9f 403e 3be4 f5bc 0fa5 303d bd94 843c
000001d0: 9074 953d 0f58 93bd 0a3c 3a3d 60fc b43d
000001e0: d8b2 69be 3094 f8bd 4cf4 3ebd d83c 1dbe
000001f0: 8e3c 36bd 46b6 c6bd 0995 7c3d adec 293d
00000200: afd7 88bd 6c78 233c 9079 3b3e c475 8a3d
00000210: 9f7a 94bd 0083 bfbb 62be 15ba 0790 a7bd
00000220: 5790 1e3e 9f4f 25bc c588 163e e73c eabd
00000230: 1035 6fbe 9781 6f3d 9a25 333e 5d0b 8c3c
0.13314085 0.11038861 0.17847104 0.06979432 0.049166333 0.08821292 0.13043602 -0.025425313
0.028005017 -0.0710972 -0.10111186 -0.033953857 -0.18256575 -0.0526388 -0.15775214 -0.0022395886
-0.026642017 0.12251932 -0.08440117 -0.0054810024 -0.13824035 -0.14858927 -0.28720027 -0.12276298
0.092558324 -0.059843253 -0.08519818 -0.046592362 -0.040767957 0.015527416 0.064784266 -0.21377003
-0.21517873 -0.08244705 -0.19635905 -0.096434265 -0.11881734 -0.07392769 0.0019480857 0.08630117
0.11065768 -0.021056445 -0.10878925 -0.0430203 0.038686126 -0.095107056 0.014152145 -0.065679826
0.03273808 -0.057606727 0.019187378 0.05506793 -0.08992452 -0.113922365 0.007952224 -0.024891667
0.059147257 0.3283851 -0.03025701 -0.19747478 0.2088192 -0.06388563 -0.13385251 0.06845567
0.05544943 0.11433162 0.13931572 0.18287411 0.16288169 0.15536582 0.132571 0.15137406
-0.106307894 -0.1283887 -0.18158004 -0.16862251 -0.22197352 -0.052799236 -0.07129994 -0.06476518
-0.13893938 0.17168906 0.056292947 0.17422697 0.1472051 0.1276395 0.020157399 0.014289977
0.018077858 0.14112085 -0.07126493 -0.033634435 -0.16732474 -0.07946829 0.1326076 0.11116172
0.2737959 0.18704985 0.15447284 -0.08701573 0.010104753 -0.10550221 0.0629894 -0.08399006
-0.11800683 -0.053554032 -0.059117634 -0.03989145 -0.031085981 0.03483431 -0.06609319 -0.010880348
0.18810675 -0.030016055 0.043126162 0.016184205 0.07297623 -0.0719453 0.045467414 0.08837199
-0.2282213 -0.121376395 -0.0466197 -0.15355241 -0.044491343 -0.09702735 0.06166557 0.041485477
-0.066817634 0.009977441 0.18308091 0.06760743 -0.072499506 -0.005844474 -0.0005712268 -0.08181768
0.15484749 -0.010089784 0.14700611 -0.114373975 -0.23360085 0.058473196 0.17494813 0.017095262
